src/edgeDevice/models/model_quantized.tflite (tflite, 238056 bytes, 8 tensors)

sequential_1/lstm_2/Read_2/ReadVariableOp f4 [896]
0.008037363 -0.010960739 0.025578573 -0.002302853 0.040041033 -0.020701766 0.0224006 0.03316607
0.07181235 0.04365661 0.18148181 0.04198134 0.05667874 0.006661418 -0.0002217747 0.096058615
-0.016568309 -0.00055187166 0.052429378 -0.0060781883 0.025484733 0.019162133 0.0181279 0.064090475
0.01368054 0.010210881 -0.011312449 0.10663561 -0.026191248 0.03640429 0.05001871 0.044369835
-0.011586974 0.056780543 0.009752442 0.018124275 0.096029386 0.062374987 -0.013167188 0.0527893
0.016338496 0.052996933 -0.021438833 -0.005917 0.049694147 0.01768724 0.012601883 0.07176048
0.009015591 0.025203466 0.028812034 -0.0039509423 0.005646575 0.016606394 0.033459313 0.012245181
0.025882725 0.070336655 0.05013989 0.021425238 0.021611007 0.0029377572 0.026219387 0.0924233
0.015037705 0.06329225 0.023785114 0.022574846 0.028667351 0.041383535 0.014896788 0.056344885
0.0385137 -0.004766554 -0.014350553 0.075140536 0.11884917 0.0039829747 0.013024779 0.086859055
-0.018475898 0.02348541 0.02908354 0.090596266 0.017651973 0.039232016 0.09259358 0.09008908
-0.018526904 0.049694985 0.06859512 -0.011167334 0.12969273 0.01736517 -0.011990269 0.0040111532
0.00034484584 0.10553566 0.008180487 0.0074161612 0.034276713 0.0080209235 0.005413167 0.03904336
0.06796394 0.007490857 0.00837153 0.008008182 0.003622842 -0.011028831 0.06538018 0.031940218
0.072518736 0.088336065 0.012376815 -0.0031274983 0.019928234 0.2307148 0.06349043 0.062363107
0.027396196 0.017651286 0.015816782 0.035415325 -0.015941871 0.020597663 0.022520365 0.15930533
-0.012430126 -0.0061258087 0.015719017 0.022612683 -0.0071947398 0.02507033 0.083110966 0.038476773
-0.013329088 0.040336017 -0.006157617 -0.0063474993 -0.009768252 0.059765834 0.028167542 0.0028636374
0.0060944674 -0.022707751 0.005687504 0.024825517 0.007786804 -0.01770958 0.07284798 0.014478582
0.0021636528 0.023274325 -0.015376939 0.03699624 0.0007708699 0.019735524 0.050544545 0.005973887
0.0077754566 0.0060066134 0.060988225 0.008154206 0.007981648 0.015110168 0.026818529 0.04082866
0.027224109 0.05946889 0.051645033 0.08424483 0.03753313 0.021913296 0.079953335 0.01326737
0.018270094 0.007744218 0.014196007 -0.002805231 0.015585951 0.0130058145 -0.005950736 0.0420566
-0.023280334 0.0050110617 0.050505135 -0.010579396 0.008766772 0.014798949 0.048491925 0.06710551
0.2777675 0.0036904921 0.03409039 0.03075741 0.03466728 0.008342261 -0.0017393469 0.05209132
0.025503576 0.0672646 0.085225776 0.03183359 0.040516697 0.010792151 0.010281557 0.060288984
0.015182648 0.073333256 0.025843143 0.04507181 0.054018877 -0.00065945793 0.030001141 0.09460091
-0.007917214 -0.0035649673 0.006471983 0.006350371 0.036194954 0.03679978 -0.010324539 0.024978722
0.98574436 0.9837869 0.9928509 1.0014716 1.0394623 0.9787693 0.95653456 0.9849639
0.9498599 0.99979454 0.99901015 0.9879966 0.9965538 0.9634281 0.99912304 1.0114347
0.99386907 0.9898212 0.97016925 1.0023721 0.9939231 1.0124778 0.9917627 0.97847366
1.0001924 1.0114828 0.9902182 0.93698514 0.978722 1.0007432 0.99644744 1.0063125
00000000: 25af 033c ac94 33bc 288a d13c 76eb 16bb
00000010: 1102 243d c096 a9bc 7781 b73c 25d9 073d
00000020: 5a12 933d 46d1 323d 5ed6 393e a0f4 2b3d
00000030: f727 683d 0648 da3b 318c 68b9 61ba c43d
00000040: 43ba 87bc 7bab 10ba 30c0 563d 8a2b c7bb
00000050: 5cc5 d03c e8f9 9c3c f680 943c de41 833d
00000060: 5824 603c 8a4b 273c da57 39bc c563 da3d
00000070: 078f d6bc aa1c 153d 6be0 4c3d 25bd 353d
00000080: 4bd7 3dbc b792 683d b5c8 1f3c 5c79 943c
00000090: 0eab c43d ea7c 7f3d 30bb 57bc 9839 583d
000000a0: 4fd8 853c 5013 593d 7ea0 afbc 65e3 c1bb
000000b0: 178c 4b3d d5e4 903c 2178 4e3c 29f7 923d
000000c0: 21b6 133c 8077 ce3c 3707 ec3c e876 81bb
000000d0: e706 b93b 220a 883c a20c 093d 03a0 483c
000000e0: 0208 d43c aa0c 903d 7c5f 4d3d fb83 af3c
000000f0: 9109 b13c 6387 403b 0aca d63c 6d48 bd3d
00000100: b560 763c 5e9f 813d 00d9 c23c e2ee b83c
00000110: cbd7 ea3c c881 293d a811 743c e5c9 663d
00000120: 8bc0 1d3d c130 9cbb 951e 6bbc 48e3 993d
00000130: 3267 f33d 9d83 823b e265 553c 29e3 b13d
00000140: c45a 97bc 7964 c03c 9b40 ee3c 898a b93d
00000150: df9a 903c c0b1 203d b4a1 bd3d a080 b83d
00000160: bcc5 97bc f88c 4b3d 997b 8c3d 32f7 36bc
00000170: 2cce 043e 6741 8e3c d572 44bc fe6f 833b
00000180: 6dcc b439 1523 d83d 7307 063c 4503 f33b
00000190: bd65 0c3d 316a 033c f060 b13b eeeb 1f3d
000001a0: ae30 8b3d dd75 f53b be28 093c c034 033c
000001b0: 346d 6d3b 45b2 34bc 0be6 853d bfd3 023d
000001c0: b484 943d 8ae9 b43d 20c8 4a3c b7f6 4cbb
000001d0: 8940 a33c 8040 6c3e 4507 823d 7570 7f3d
000001e0: fd6d e03c 6e99 903c 3292 813c a90f 113d
000001f0: 8798 82bc 6ebc a83c a17c b83c f020 233e
00000200: baa7 4bbc 02bb c8bb 2bc5 803c 3c3e b93c
00000210: dac1 ebbb 4b60 cd3c 1536 aa3d d299 1d3d
00000220: 3f62 5abc 6137 253d d6c5 c9bb affe cfbb
00000230: 050b 20bc 05cd 743d 9ebf e63c ddab 3b3b
00000240: 19b4 c73b 9b05 babc 3e5e ba3b e25e cb3c
00000250: 7228 ff3b ae13 91bc 5231 953d 9337 6d3c
00000260: 12cc 0d3b cca9 be3c 8fef 7bbc 5f89 173d
00000270: 3414 4a3a 65ac a13c cc07 4f3d 99c0 c33b
00000280: 42c9 fe3b 20d3 c43b cace 793d 3899 053c
00000290: 75c5 023c a390 773c 88b2 db3c f43b 273d
000002a0: 1805 df3c a795 733d be89 533d 8e88 ac3d
000002b0: 57bc 193d 8383 b33c 93be a33d 625f 593c
000002c0: 2aab 953c 36c3 fd3b 5e96 683c f7d7 37bb
000002d0: 375c 7f3c 5716 553c 64fe c2bb 8b43 2c3d
000002e0: 66b6 bebc d533 a43b 79de 4e3d 3455 2dbc
000002f0: 82a2 0f3c 4a77 723c 789f 463d 9d6e 893d
00000300: 8b37 8e3e 2fdc 713b 5da2 0b3d f7f6 fb3c
00000310: 47ff 0d3d fbad 083c ccfa e3ba b55d 553d
00000320: e0ec d03c 06c2 893d da8a ae3d f063 023d
00000330: d6f4 253d 90d1 303c fa73 283c 95f1 763d
00000340: a4c0 783c bf2f 963d 00b5 d33c 389d 383d
00000350: e642 5d3d 79df 2cba f4c4 f53c 1fbe c13d
00000360: 34b7 01bc 3aa2 69bb ee12 d43b c616 d03b
00000370: 2941 143d 5ebb 163d 4128 29bc 2da0 cc3c
00000380: be59 7c3f 75d9 7b3f 7a2b 7e3f 3930 803f
00000390: 1a0d 853f a090 7a3f 73df 743f 9826 7c3f
000003a0: 052a 733f 89f2 7f3f 21bf 7f3f 58ed 7c3f
000003b0: 261e 7f3f 39a3 763f 87c6 7f3f b176 813f
000003c0: 346e 7e3f ec64 7d3f 035d 783f bb4d 803f
000003d0: bf71 7e3f df98 813f 29e4 7d3f 407d 7a3f
000003e0: 4e06 803f 4578 813f f17e 7d3f 42de 6f3f
000003f0: 868d 7a3f 5a18 803f 2e17 7f3f d9ce 803f

sequential_1/dense_3/BiasAdd/ReadVariableOp f4 [42]
0.030099437 0.021151382 0.030512437 0.033193864 -0.01065489 -0.007709003 0.037904207 0.009054698
0.006322779 0.02817782 0.023660226 -0.006716351 0.0035618579 0.041229174 0.014872681 0.023857405
0.037013706 0.019194264 -0.020293606 -0.010263219 0.014261597 -0.009678512 0.0085946 0.029420795
0.02048546 -0.0016168455 -0.006354665 0.044124108 0.039688293 0.026914176 0.038607273 0.009533773
-0.0018607874 -0.006100135 0.028499203 0.046929788 0.00981524 0.033368547 0.0186764 0.0005035238
0.022374764 0.04363574
00000000: 1893 f63c aa45 ad3c 38f5 f93c 4af6 073d
00000010: d991 2ebc ce9b fcbb 7141 1b3d 285a 143c
00000020: 512f cf3b 2cd5 e63c 17d3 c13c d614 dcbb
00000030: 0f6e 693b ecdf 283d 8cac 733c 9b70 c33c
00000040: af9b 173d 4a3d 9d3c c73e a6bc 0f27 28bc
00000050: 79a9 693c 9f92 1ebc 5dd0 0c3c e103 f13c
00000060: 20d1 a73c 55ec d3ba cb3a d0bb 7bbb 343d
00000070: 3190 223d 1e7b dc3c a922 1e3d 8b33 1c3c
00000080: aae5 f3ba a4e3 c7bb 2977 e93c 7339 403d
00000090: 1ad0 203c 75ad 083d 40ff 983c e9fe 033a
000000a0: 484b b73c 64bb 323d

sequential_1/dense_2/BiasAdd/ReadVariableOp f4 [48]
-0.02885551 -0.016230853 0.02195924 -0.0034463422 -0.015840447 0.014132418 -0.00454494 -0.017069152
-0.0007067465 -0.01180901 0.010962268 0.018799327 0.01495787 0.017868226 -0.016973842 -0.027162796
-0.012358574 -0.025651509 -0.010948743 0.018635124 0.01587254 0.027681362 0.025044696 -0.015808541
0.0011584087 0.018074336 0.019008748 0.023148032 0.007908728 0.014469329 0.021820014 -0.020485064
-0.006624043 -0.026267944 0.0028478217 -0.008484557 0.031300906 -0.012985617 -0.014603913 0.02309326
-0.017880922 0.026381252 -0.014514757 0.020978624 0.001231638 0.013773518 0.011185894 -0.007895114
00000000: 6462 ecbc 91f6 84bc dde3 b33c 07dc 61bb
00000010: d3c3 81bc a88b 673c b8ed 94bb 9bd4 8bbc
00000020: f444 39ba 947a 41bc 169b 333c 0c01 9a3c
00000030: db11 753c 6360 923c ba0c 8bbc 8384 debc
00000040: 9e7b 4abc 1d23 d2bc 5b62 33bc b0a8 983c
00000050: 2107 823c 06c4 e23c 892a cd3c ea80 81bc
00000060: bfd5 973a a110 943c 3cb8 9b3c f1a0 bd3c
00000070: 9c93 013c c410 6d3c e3bf b23c 4bd0 a7bc
00000080: 800e d9bb df2f d7bc 85a2 3a3b d002 0bbc
00000090: 6135 003d a0c1 54bc 4045 6fbc 142e bd3c
000000a0: 037b 92bc 7f1d d83c 4ecf 6dbc 5ddb ab3c
000000b0: ea6e a13a 52aa 613c 0a45 373c 825a 01bc

sequential_1/dense_2/MatMul i1 [48, 224] scale=0.0023941088 zero_point=0
-0.088582024 0.009576435 0.12688777 0.12209955 -0.07182326 -0.04069985 -0.055064503 -0.07182326
0.1340701 0.06464094 0.10294668 -0.10294668 -0.021546979 -0.031123415 0.045488067 0.1388583
-0.14604063 -0.0813997 -0.028729305 -0.10534079 0.03830574 -0.1604053 0.043093957 0.01915287
-0.05745861 0.098158464 0.05985272 0.1388583 0.033517525 0.086187914 -0.12209955 0.07661148
0.043093957 -0.093370244 0.10055257 -0.026335197 0.086187914 0.016758762 -0.0047882176 0.090976134
0.05985272 0.12209955 -0.033517525 0.04069985 -0.031123415 0.03830574 0.12688777 0.055064503
-0.07661148 -0.06224683 -0.07900559 0.052670393 -0.050276283 -0.098158464 -0.009576435 -0.007182326
0.10055257 0.0813997 -0.15322296 -0.07900559 -0.14125241 -0.15801118 -0.014364652 0.13167599
0.12688777 0.06703505 -0.088582024 0.021546979 0.023941088 0.043093957 -0.06464094 -0.031123415
-0.014364652 -0.14604063 -0.014364652 0.11731133 -0.14364652 0.110129006 0.08379381 -0.052670393
0.11970544 -0.098158464 -0.086187914 -0.031123415 -0.14364652 -0.093370244 0.009576435 0.093370244
-0.11970544 0.10294668 0.028729305 -0.014364652 -0.023941088 0.06942915 -0.04069985 -0.06703505
0.028729305 -0.028729305 0.07421737 -0.08379381 0.021546979 -0.1340701 -0.11731133 -0.031123415
0.06224683 -0.086187914 -0.10534079 0.023941088 -0.033517525 -0.08379381 -0.03830574 0.110129006
0.13646421 -0.007182326 0.043093957 -0.15801118 -0.10534079 0.055064503 0.15801118 0.1340701
-0.0047882176 0.13167599 0.07182326 -0.0813997 -0.031123415 -0.14604063 -0.10294668 -0.12688777
0.045488067 0.12928188 -0.028729305 -0.07182326 0.009576435 -0.014364652 -0.13167599 0.0023941088
0.03591163 0.033517525 -0.13646421 -0.07421737 -0.045488067 -0.026335197 -0.1340701 0.1627994
-0.052670393 0.08379381 -0.03591163 -0.07182326 0.009576435 0.1388583 0.055064503 -0.086187914
0.06703505 -0.06464094 0.07421737 0.12928188 0.03830574 0.0813997 0.13646421 -0.07182326
0.047882177 0.10055257 0.028729305 -0.07182326 0.047882177 -0.0813997 -0.1340701 -0.007182326
0.04069985 0.028729305 -0.15561707 -0.009576435 -0.045488067 -0.05745861 0.06464094 -0.11970544
-0.033517525 0.033517525 0.15561707 0.06942915 0.052670393 -0.05985272 0.047882177 0.055064503
0.095764354 0.026335197 0.011970544 0.11731133 -0.10055257 -0.14604063 0.15561707 -0.05985272
-0.11491722 -0.009576435 0.098158464 -0.10055257 0.0 -0.05985272 0.14125241 0.1340701
0.086187914 0.06942915 -0.026335197 0.1340701 0.11731133 -0.047882177 -0.016758762 -0.10534079
-0.028729305 0.052670393 0.14843474 0.016758762 0.090976134 -0.0047882176 0.0023941088 0.11731133
0.1388583 0.045488067 -0.15082885 0.14604063 -0.007182326 0.10294668 -0.15561707 0.043093957
-0.03591163 -0.12688777 0.07421737 0.047882177 0.07421737 0.023941088 0.014364652 -0.016758762
0.05985272 -0.014364652 -0.05745861 -0.14604063 0.06464094 -0.14125241 0.026335197 -0.07661148
0.098158464 0.095764354 -0.06464094 -0.12209955 0.016758762 -0.0047882176 -0.090976134 0.06703505
0.11731133 0.031123415 0.07900559 -0.07182326 0.04069985 0.1340701 0.107734896 0.009576435
00000000: db04 3533 e2ef e9e2 381b 2bd5 f7f3 133a
00000010: c3de f4d4 10bd 1208 e829 193a 0e24 cd20
00000020: 12d9 2af5 2407 fe26 1933 f211 f310 3517
00000030: e0e6 df16 ebd7 fcfd 2a22 c0df c5be fa37
00000040: 351c db09 0a12 e5f3 fac3 fa31 c42e 23ea
00000050: 32d7 dcf3 c4d9 0427 ce2b 0cfa f61d efe4
00000060: 0cf4 1fdd 09c8 cff3 1adc d40a f2dd f02e
00000070: 39fd 12be d417 4238 fe37 1ede f3c3 d5cb
00000080: 1336 f4e2 04fa c901 0f0e c7e1 edf5 c844
00000090: ea23 f1e2 043a 17dc 1ce5 1f36 1022 39e2
000000a0: 142a 0ce2 14de c8fd 110c bffc ede8 1bce
000000b0: f20e 411d 16e7 1417 280b 0531 d6c3 41e7
000000c0: d0fc 29d6 00e7 3b38 241d f538 31ec f9d4
000000d0: f416 3e07 26fe 0131 3a13 c13d fd2b bf12
000000e0: f1cb 1f14 1f0a 06f9 19fa e8c3 1bc5 0be0
000000f0: 2928 e5cd 07fe da1c 310d 21e2 1138 2d04

sequential_1/dense_3/MatMul i1 [42, 48] scale=0.0034079598 zero_point=0
0.20788555 -0.109054714 -0.19084576 -0.057935316 -0.13291043 0.23514923 -0.02385572 -0.02385572
-0.18743779 0.12268655 0.30330843 0.07497512 -0.17380595 -0.09542288 -0.13291043 0.04771144
-0.040895518 0.092014916 0.034079596 -0.16358207 0.24878107 -0.2453731 -0.027263679 -0.14313431
-0.03748756 0.170398 0.19766167 -0.1022388 -0.15676615 0.2044776 -0.02385572 -0.1022388
-0.12950248 -0.18743779 -0.0034079598 0.013631839 0.14313431 -0.027263679 0.054527357 -0.061343275
-0.1772139 -0.18402983 -0.085199 -0.054527357 0.13972636 -0.1772139 0.14313431 -0.027263679
-0.14654227 -0.1022388 -0.3544278 0.21810943 -0.06475124 0.2453731 0.03748756 0.109054714
0.1022388 0.16358207 0.16699003 0.0102238795 -0.044303477 0.013631839 0.04771144 0.085199
-0.098830834 0.16017412 0.06815919 0.18743779 0.1022388 -0.085199 0.21470147 -0.12950248
0.13631839 0.044303477 -0.03748756 -0.12609452 0.23855719 0.16699003 -0.2044776 0.06475124
-0.11246268 0.19766167 -0.06475124 0.22833331 -0.027263679 0.12950248 0.0 -0.26582086
0.03748756 0.13291043 -0.017039798 -0.027263679 -0.170398 0.13631839 -0.12950248 0.03748756
-0.20788555 0.170398 0.092014916 -0.017039798 0.15676615 -0.06815919 0.03748756 0.017039798
0.28286067 -0.2453731 -0.22151738 -0.12609452 -0.13972636 0.19766167 0.027263679 0.057935316
-0.10564675 -0.04771144 -0.19766167 0.15676615 0.23514923 -0.06815919 -0.13972636 -0.12950248
-0.04771144 -0.1022388 0.29990047 0.21470147 -0.027263679 0.08860695 -0.0102238795 -0.081791036
0.25218904 0.22833331 0.030671638 0.085199 -0.03748756 -0.24878107 -0.1772139 0.020447759
0.0102238795 0.071567155 -0.054527357 0.13631839 0.06815919 0.36124375 0.11246268 0.057935316
-0.25900495 -0.06475124 -0.41236314 0.027263679 0.0511194 -0.14313431 0.03748756 -0.12268655
-0.030671638 -0.030671638 0.3237562 0.26922882 0.18062188 -0.255597 -0.20106962 0.03748756
0.19766167 -0.057935316 0.18743779 -0.057935316 -0.06475124 -0.11587063 0.16017412 0.2112935
-0.0034079598 -0.092014916 0.09542288 0.21470147 -0.092014916 -0.0034079598 0.085199 -0.081791036
0.16358207 -0.08860695 -0.017039798 -0.06475124 0.1022388 0.0511194 0.20788555 -0.14654227
-0.11587063 0.18743779 0.030671638 -0.027263679 -0.15676615 -0.040895518 0.085199 0.020447759
-0.06815919 -0.22151738 -0.15676615 0.034079596 0.0511194 0.0511194 0.020447759 -0.07497512
0.18402983 -0.044303477 0.1022388 0.14654227 0.13972636 -0.17380595 0.22492535 0.092014916
0.0034079598 -0.12268655 0.2044776 0.017039798 -0.081791036 0.09542288 -0.19425371 -0.057935316
0.21470147 -0.13972636 -0.030671638 0.0511194 -0.027263679 0.08860695 -0.119278595 0.0511194
0.20106962 -0.08860695 -0.20106962 -0.19084576 -0.16699003 0.0511194 0.11246268 0.109054714
-0.03748756 0.15676615 0.08860695 -0.0068159197 -0.061343275 0.28967658 0.255597 -0.061343275
0.013631839 -0.040895518 -0.255597 0.054527357 0.2453731 -0.030671638 -0.071567155 0.057935316
-0.13291043 -0.255597 -0.02385572 0.30330843 -0.12609452 0.12950248 0.0511194 0.06815919
00000000: 3de0 c8ef d945 f9f9 c924 5916 cde4 d90e
00000010: f41b 0ad0 49b8 f8d6 f532 3ae2 d23c f9e2
00000020: dac9 ff04 2af8 10ee ccca e7f0 29cc 2af8
00000030: d5e2 9840 ed48 0b20 1e30 3103 f304 0e19
00000040: e32f 1437 1ee7 3fda 280d f5db 4631 c413
00000050: df3a ed43 f826 00b2 0b27 fbf8 ce28 da0b
00000060: c332 1bfb 2eec 0b05 53b8 bfdb d73a 0811
00000070: e1f2 c62e 45ec d7da f2e2 583f f81a fde8
00000080: 4a43 0919 f5b7 cc06 0315 f028 146a 2111
00000090: b4ed 8708 0fd6 0bdc f7f7 5f4f 35b5 c50b
000000a0: 3aef 37ef edde 2f3e ffe5 1c3f e5ff 19e8
000000b0: 30e6 fbed 1e0f 3dd5 de37 09f8 d2f4 1906
000000c0: ecbf d20a 0f0f 06ea 36f3 1e2b 29cd 421b
000000d0: 01dc 3c05 e81c c7ef 3fd7 f70f f81a dd0f
000000e0: 3be6 c5c8 cf0f 2120 f52e 1afe ee55 4bee
000000f0: 04f4 b510 48f7 eb11 d9b5 f959 db26 0f14

sequential_1/lstm_2/Read_2/ReadVariableOp1 f4 [896]
0.008037363 -0.010960739 0.025578573 -0.002302853 0.040041033 -0.020701766 0.0224006 0.03316607
0.07181235 0.04365661 0.18148181 0.04198134 0.05667874 0.006661418 -0.0002217747 0.096058615
-0.016568309 -0.00055187166 0.052429378 -0.0060781883 0.025484733 0.019162133 0.0181279 0.064090475
0.01368054 0.010210881 -0.011312449 0.10663561 -0.026191248 0.03640429 0.05001871 0.044369835
-0.011586974 0.056780543 0.009752442 0.018124275 0.096029386 0.062374987 -0.013167188 0.0527893
0.016338496 0.052996933 -0.021438833 -0.005917 0.049694147 0.01768724 0.012601883 0.07176048
0.009015591 0.025203466 0.028812034 -0.0039509423 0.005646575 0.016606394 0.033459313 0.012245181
0.025882725 0.070336655 0.05013989 0.021425238 0.021611007 0.0029377572 0.026219387 0.0924233
0.015037705 0.06329225 0.023785114 0.022574846 0.028667351 0.041383535 0.014896788 0.056344885
0.0385137 -0.004766554 -0.014350553 0.075140536 0.11884917 0.0039829747 0.013024779 0.086859055
-0.018475898 0.02348541 0.02908354 0.090596266 0.017651973 0.039232016 0.09259358 0.09008908
-0.018526904 0.049694985 0.06859512 -0.011167334 0.12969273 0.01736517 -0.011990269 0.0040111532
0.00034484584 0.10553566 0.008180487 0.0074161612 0.034276713 0.0080209235 0.005413167 0.03904336
0.06796394 0.007490857 0.00837153 0.008008182 0.003622842 -0.011028831 0.06538018 0.031940218
0.072518736 0.088336065 0.012376815 -0.0031274983 0.019928234 0.2307148 0.06349043 0.062363107
0.027396196 0.017651286 0.015816782 0.035415325 -0.015941871 0.020597663 0.022520365 0.15930533
-0.012430126 -0.0061258087 0.015719017 0.022612683 -0.0071947398 0.02507033 0.083110966 0.038476773
-0.013329088 0.040336017 -0.006157617 -0.0063474993 -0.009768252 0.059765834 0.028167542 0.0028636374
0.0060944674 -0.022707751 0.005687504 0.024825517 0.007786804 -0.01770958 0.07284798 0.014478582
0.0021636528 0.023274325 -0.015376939 0.03699624 0.0007708699 0.019735524 0.050544545 0.005973887
0.0077754566 0.0060066134 0.060988225 0.008154206 0.007981648 0.015110168 0.026818529 0.04082866
0.027224109 0.05946889 0.051645033 0.08424483 0.03753313 0.021913296 0.079953335 0.01326737
0.018270094 0.007744218 0.014196007 -0.002805231 0.015585951 0.0130058145 -0.005950736 0.0420566
-0.023280334 0.0050110617 0.050505135 -0.010579396 0.008766772 0.014798949 0.048491925 0.06710551
0.2777675 0.0036904921 0.03409039 0.03075741 0.03466728 0.008342261 -0.0017393469 0.05209132
0.025503576 0.0672646 0.085225776 0.03183359 0.040516697 0.010792151 0.010281557 0.060288984
0.015182648 0.073333256 0.025843143 0.04507181 0.054018877 -0.00065945793 0.030001141 0.09460091
-0.007917214 -0.0035649673 0.006471983 0.006350371 0.036194954 0.03679978 -0.010324539 0.024978722
0.98574436 0.9837869 0.9928509 1.0014716 1.0394623 0.9787693 0.95653456 0.9849639
0.9498599 0.99979454 0.99901015 0.9879966 0.9965538 0.9634281 0.99912304 1.0114347
0.99386907 0.9898212 0.97016925 1.0023721 0.9939231 1.0124778 0.9917627 0.97847366
1.0001924 1.0114828 0.9902182 0.93698514 0.978722 1.0007432 0.99644744 1.0063125
00000000: 25af 033c ac94 33bc 288a d13c 76eb 16bb
00000010: 1102 243d c096 a9bc 7781 b73c 25d9 073d
00000020: 5a12 933d 46d1 323d 5ed6 393e a0f4 2b3d
00000030: f727 683d 0648 da3b 318c 68b9 61ba c43d
00000040: 43ba 87bc 7bab 10ba 30c0 563d 8a2b c7bb
00000050: 5cc5 d03c e8f9 9c3c f680 943c de41 833d
00000060: 5824 603c 8a4b 273c da57 39bc c563 da3d
00000070: 078f d6bc aa1c 153d 6be0 4c3d 25bd 353d
00000080: 4bd7 3dbc b792 683d b5c8 1f3c 5c79 943c
00000090: 0eab c43d ea7c 7f3d 30bb 57bc 9839 583d
000000a0: 4fd8 853c 5013 593d 7ea0 afbc 65e3 c1bb
000000b0: 178c 4b3d d5e4 903c 2178 4e3c 29f7 923d
000000c0: 21b6 133c 8077 ce3c 3707 ec3c e876 81bb
000000d0: e706 b93b 220a 883c a20c 093d 03a0 483c
000000e0: 0208 d43c aa0c 903d 7c5f 4d3d fb83 af3c
000000f0: 9109 b13c 6387 403b 0aca d63c 6d48 bd3d
00000100: b560 763c 5e9f 813d 00d9 c23c e2ee b83c
00000110: cbd7 ea3c c881 293d a811 743c e5c9 663d
00000120: 8bc0 1d3d c130 9cbb 951e 6bbc 48e3 993d
00000130: 3267 f33d 9d83 823b e265 553c 29e3 b13d
00000140: c45a 97bc 7964 c03c 9b40 ee3c 898a b93d
00000150: df9a 903c c0b1 203d b4a1 bd3d a080 b83d
00000160: bcc5 97bc f88c 4b3d 997b 8c3d 32f7 36bc
00000170: 2cce 043e 6741 8e3c d572 44bc fe6f 833b
00000180: 6dcc b439 1523 d83d 7307 063c 4503 f33b
00000190: bd65 0c3d 316a 033c f060 b13b eeeb 1f3d
000001a0: ae30 8b3d dd75 f53b be28 093c c034 033c
000001b0: 346d 6d3b 45b2 34bc 0be6 853d bfd3 023d
000001c0: b484 943d 8ae9 b43d 20c8 4a3c b7f6 4cbb
000001d0: 8940 a33c 8040 6c3e 4507 823d 7570 7f3d
000001e0: fd6d e03c 6e99 903c 3292 813c a90f 113d
000001f0: 8798 82bc 6ebc a83c a17c b83c f020 233e
00000200: baa7 4bbc 02bb c8bb 2bc5 803c 3c3e b93c
00000210: dac1 ebbb 4b60 cd3c 1536 aa3d d299 1d3d
00000220: 3f62 5abc 6137 253d d6c5 c9bb affe cfbb
00000230: 050b 20bc 05cd 743d 9ebf e63c ddab 3b3b
00000240: 19b4 c73b 9b05 babc 3e5e ba3b e25e cb3c
00000250: 7228 ff3b ae13 91bc 5231 953d 9337 6d3c
00000260: 12cc 0d3b cca9 be3c 8fef 7bbc 5f89 173d
00000270: 3414 4a3a 65ac a13c cc07 4f3d 99c0 c33b
00000280: 42c9 fe3b 20d3 c43b cace 793d 3899 053c
00000290: 75c5 023c a390 773c 88b2 db3c f43b 273d
000002a0: 1805 df3c a795 733d be89 533d 8e88 ac3d
000002b0: 57bc 193d 8383 b33c 93be a33d 625f 593c
000002c0: 2aab 953c 36c3 fd3b 5e96 683c f7d7 37bb
000002d0: 375c 7f3c 5716 553c 64fe c2bb 8b43 2c3d
000002e0: 66b6 bebc d533 a43b 79de 4e3d 3455 2dbc
000002f0: 82a2 0f3c 4a77 723c 789f 463d 9d6e 893d
00000300: 8b37 8e3e 2fdc 713b 5da2 0b3d f7f6 fb3c
00000310: 47ff 0d3d fbad 083c ccfa e3ba b55d 553d
00000320: e0ec d03c 06c2 893d da8a ae3d f063 023d
00000330: d6f4 253d 90d1 303c fa73 283c 95f1 763d
00000340: a4c0 783c bf2f 963d 00b5 d33c 389d 383d
00000350: e642 5d3d 79df 2cba f4c4 f53c 1fbe c13d
00000360: 34b7 01bc 3aa2 69bb ee12 d43b c616 d03b
00000370: 2941 143d 5ebb 163d 4128 29bc 2da0 cc3c
00000380: be59 7c3f 75d9 7b3f 7a2b 7e3f 3930 803f
00000390: 1a0d 853f a090 7a3f 73df 743f 9826 7c3f
000003a0: 052a 733f 89f2 7f3f 21bf 7f3f 58ed 7c3f
000003b0: 261e 7f3f 39a3 763f 87c6 7f3f b176 813f
000003c0: 346e 7e3f ec64 7d3f 035d 783f bb4d 803f
000003d0: bf71 7e3f df98 813f 29e4 7d3f 407d 7a3f
000003e0: 4e06 803f 4578 813f f17e 7d3f 42de 6f3f
000003f0: 868d 7a3f 5a18 803f 2e17 7f3f d9ce 803f

while/MatMul_11 i1 [896, 224] scale=0.0041381307 zero_point=0
-0.033105046 0.016552523 -0.11172953 0.045519438 -0.008276261 0.028966915 -0.033105046 0.045519438
-0.012414392 -0.07862449 -0.020690653 0.045519438 -0.09931514 0.07034822 -0.041381307 0.008276261
-0.012414392 -0.045519438 0.041381307 0.041381307 0.020690653 0.0041381307 -0.008276261 0.0537957
0.04965757 -0.09931514 0.020690653 -0.04965757 0.06621009 0.07862449 0.07448635 0.041381307
-0.037243176 -0.0537957 0.008276261 -0.016552523 -0.04965757 -0.012414392 -0.041381307 0.10345326
0.0 0.008276261 -0.0537957 -0.13242018 -0.1075914 -0.016552523 -0.045519438 0.045519438
-0.0041381307 -0.012414392 -0.024828784 0.008276261 -0.041381307 0.05793383 -0.012414392 0.008276261
-0.04965757 -0.020690653 -0.0041381307 0.016552523 -0.07034822 0.10345326 -0.012414392 -0.12414392
-0.016552523 0.14483458 0.05793383 -0.07034822 -0.041381307 -0.033105046 0.07034822 0.08690074
0.020690653 -0.016552523 0.016552523 0.0041381307 -0.21932092 0.012414392 -0.045519438 0.11586766
0.020690653 -0.07862449 0.020690653 -0.0041381307 0.06621009 -0.045519438 -0.020690653 0.091038875
-0.07034822 0.09517701 0.16966335 0.0 0.09517701 -0.016552523 0.041381307 -0.037243176
0.012414392 -0.04965757 0.06621009 0.06621009 0.020690653 0.020690653 0.0041381307 0.028966915
-0.06207196 0.14069644 0.07448635 0.06207196 -0.07862449 0.020690653 -0.12828206 0.09517701
0.04965757 0.033105046 -0.06621009 -0.045519438 0.08690074 0.07034822 -0.045519438 -0.028966915
-0.012414392 -0.033105046 0.0041381307 0.05793383 0.11172953 0.016552523 0.091038875 -0.12000579
-0.020690653 -0.041381307 -0.082762614 -0.08690074 0.028966915 0.012414392 -0.11172953 0.037243176
0.008276261 0.0041381307 -0.012414392 0.033105046 0.0 -0.09517701 -0.037243176 0.0537957
-0.04965757 0.06621009 -0.0537957 -0.008276261 0.033105046 0.024828784 0.05793383 0.028966915
-0.028966915 0.07862449 -0.045519438 -0.07448635 0.0 0.0041381307 -0.033105046 0.012414392
0.0 0.0537957 -0.008276261 0.020690653 0.012414392 -0.045519438 0.020690653 0.11172953
-0.008276261 -0.0041381307 -0.06621009 -0.016552523 -0.041381307 -0.008276261 0.082762614 -0.10345326
0.012414392 0.0 -0.082762614 0.0 0.008276261 0.037243176 -0.012414392 -0.091038875
-0.08690074 0.008276261 0.016552523 0.0 0.008276261 0.10345326 -0.008276261 -0.091038875
0.17380148 -0.04965757 -0.091038875 -0.09517701 0.033105046 -0.045519438 -0.012414392 -0.0041381307
-0.0041381307 -0.012414392 -0.04965757 -0.016552523 0.08690074 -0.09931514 -0.041381307 0.033105046
0.0 0.037243176 0.028966915 -0.033105046 -0.091038875 -0.024828784 0.0 -0.18621588
0.0 -0.05793383 -0.05793383 0.07862449 -0.041381307 -0.024828784 -0.016552523 -0.06621009
0.012414392 0.041381307 0.024828784 -0.04965757 -0.037243176 -0.033105046 -0.037243176 -0.06621009
0.12828206 0.07862449 -0.06621009 0.0041381307 -0.04965757 -0.04965757 -0.07034822 0.041381307
-0.0041381307 -0.0041381307 -0.091038875 0.016552523 -0.033105046 -0.024828784 0.04965757 -0.05793383
0.045519438 0.09517701 0.016552523 0.012414392 0.045519438 -0.0041381307 0.06621009 -0.008276261
00000000: f804 e50b fe07 f80b fded fb0b e811 f602
00000010: fdf5 0a0a 0501 fe0d 0ce8 05f4 1013 120a
00000020: f7f3 02fc f4fd f619 0002 f3e0 e6fc f50b
00000030: fffd fa02 f60e fd02 f4fb ff04 ef19 fde2
00000040: fc23 0eef f6f8 1115 05fc 0401 cb03 f51c
00000050: 05ed 05ff 10f5 fb16 ef17 2900 17fc 0af7
00000060: 03f4 1010 0505 0107 f122 120f ed05 e117
00000070: 0c08 f0f5 1511 f5f9 fdf8 010e 1b04 16e3
00000080: fbf6 eceb 0703 e509 0201 fd08 00e9 f70d
00000090: f410 f3fe 0806 0e07 f913 f5ee 0001 f803
000000a0: 000d fe05 03f5 051b feff f0fc f6fe 14e7
000000b0: 0300 ec00 0209 fdea eb02 0400 0219 feea
000000c0: 2af4 eae9 08f5 fdff fffd f4fc 15e8 f608
000000d0: 0009 07f8 eafa 00d3 00f2 f213 f6fa fcf0
000000e0: 030a 06f4 f7f8 f7f0 1f13 f001 f4f4 ef0a
000000f0: ffff ea04 f8fa 0cf2 0b17 0403 0bff 10fe

while/MatMul i1 [896, 7] scale=0.0047393083 zero_point=0
0.056871697 -0.042653773 0.061611008 0.028435849 0.0 -0.13743994 -0.042653773 0.07582893
-0.05213239 -0.099525474 0.028435849 0.16587579 0.31753364 -0.15165786 0.10900409 -0.10900409
-0.047393084 0.14691855 0.113743395 -0.10900409 0.037914466 0.0094786165 0.028435849 -0.023696542
0.10426478 -0.1753544 -0.037914466 -0.06635032 -0.03317516 -0.11848271 -0.023696542 0.0094786165
-0.056871697 0.06635032 -0.16587579 -0.0094786165 -0.014217924 -0.07582893 -0.06635032 0.061611008
0.03317516 -0.037914466 0.099525474 -0.113743395 0.0094786165 0.10426478 0.26540127 0.071089625
0.13743994 -0.06635032 -0.11848271 0.014217924 -0.042653773 -0.11848271 -0.09478617 -0.061611008
0.18483302 0.10900409 0.123222016 0.085307546 -0.13743994 0.09004686 0.014217924 0.0047393083
0.042653773 0.05213239 0.028435849 0.1753544 -0.03317516 0.16113648 0.14217925 0.071089625
0.17061509 0.19431163 0.014217924 -0.15165786 0.2843585 -0.10426478 -0.028435849 -0.06635032
-0.16113648 0.047393084 0.023696542 -0.11848271 0.014217924 0.023696542 0.071089625 0.113743395
0.22274749 -0.0094786165 -0.10900409 0.16587579 0.20379026 -0.10900409 0.19431163 -0.0094786165
0.03317516 -0.07582893 0.028435849 -0.10900409 0.0094786165 0.023696542 0.056871697 -0.03317516
-0.037914466 -0.028435849 -0.13270064 -0.056871697 -0.05213239 0.0 0.0047393083 -0.08056824
0.0094786165 -0.047393084 0.014217924 -0.0047393083 -0.07582893 -0.061611008 -0.06635032 -0.047393084
0.0 0.023696542 0.042653773 -0.047393084 -0.06635032 0.10900409 0.0 0.028435849
-0.0047393083 -0.05213239 -0.1753544 0.0 -0.014217924 -0.056871697 -0.11848271 0.06635032
0.0094786165 -0.09004686 -0.08056824 -0.028435849 0.16113648 0.0047393083 -0.0047393083 0.13743994
-0.08056824 -0.071089625 0.042653773 0.10426478 -0.12796132 0.10426478 0.056871697 0.17061509
0.16113648 0.11848271 0.0 0.07582893 0.037914466 0.037914466 -0.03317516 -0.11848271
0.06635032 -0.12796132 -0.047393084 0.19905095 -0.12796132 0.037914466 -0.0047393083 -0.05213239
0.09478617 0.16113648 -0.014217924 0.13743994 -0.061611008 0.05213239 0.0094786165 0.14691855
0.07582893 0.10426478 0.06635032 0.03317516 -0.21800818 0.113743395 -0.018957233 0.13743994
0.0094786165 0.037914466 0.09478617 -0.047393084 -0.071089625 0.09004686 0.10900409 -0.03317516
0.10426478 0.19905095 0.28909782 0.037914466 -0.047393084 -0.014217924 -0.056871697 -0.10426478
0.061611008 0.0047393083 0.018957233 -0.18483302 -0.18009372 0.06635032 -0.17061509 -0.30805504
-0.26066196 -0.16587579 -0.047393084 -0.2322261 0.023696542 -0.113743395 -0.12796132 0.023696542
-0.037914466 -0.06635032 0.12796132 0.028435849 -0.07582893 -0.037914466 -0.06635032 -0.113743395
-0.014217924 -0.014217924 0.06635032 -0.071089625 0.06635032 -0.13270064 -0.042653773 0.071089625
0.10900409 0.071089625 0.15165786 0.037914466 0.07582893 0.037914466 0.15639718 0.0094786165
0.0094786165 0.19905095 -0.07582893 0.12796132 -0.03317516 0.05213239 -0.028435849 -0.023696542
0.023696542 -0.113743395 0.023696542 0.0 0.10426478 0.2843585 0.047393084 0.13270064
00000000: 0cf7 0d06 00e3 f710 f5eb 0623 43e0 17e9
00000010: f61f 18e9 0802 06fb 16db f8f2 f9e7 fb02
00000020: f40e ddfe fdf0 f20d 07f8 15e8 0216 380f
00000030: 1df2 e703 f7e7 ecf3 2717 1a12 e313 0301
00000040: 090b 0625 f922 1e0f 2429 03e0 3cea faf2
00000050: de0a 05e7 0305 0f18 2ffe e923 2be9 29fe
00000060: 07f0 06e9 0205 0cf9 f8fa e4f4 f500 01ef
00000070: 02f6 03ff f0f3 f2f6 0005 09f6 f217 0006
00000080: fff5 db00 fdf4 e70e 02ed effa 2201 ff1d
00000090: eff1 0916 e516 0c24 2219 0010 0808 f9e7
000000a0: 0ee5 f62a e508 fff5 1422 fd1d f30b 021f
000000b0: 1016 0e07 d218 fc1d 0208 14f6 f113 17f9
000000c0: 162a 3d08 f6fd f4ea 0d01 04d9 da0e dcbf
000000d0: c9dd f6cf 05e8 e505 f8f2 1b06 f0f8 f2e8
000000e0: fdfd 0ef1 0ee4 f70f 170f 2008 1008 2102
000000f0: 022a f01b f90b fafb 05e8 0500 163c 0a1c
