src/edgeDevice/models/model.tflite (tflite, 4544 bytes, 3 tensors)

sequential/dense/BiasAdd/ReadVariableOp f4 [64]
000000 84 1d c8 3c 84 3d 06 3c 64 2a be 3c 1d 3c be 3c
       0.024428137 0.008193377 0.023213573 0.023222024
000010 2d 4d ee b9 c7 60 0c bc 1b 9f ba 3c 6e e7 a2 bc
       -0.00045452398 -0.008567995 0.022780946 -0.019885745
000020 40 44 d9 3b ee 37 b6 3b 6e 89 66 bc d9 1b ac 3c
       0.0066304505 0.0055608666 -0.014070852 0.021009373
000030 3f 09 63 3d 9f f7 c8 3c 9b 6d b8 3c cc 04 ad 3c
       0.05542874 0.024532137 0.022513201 0.021120451
000040 d5 6f 08 3d 44 2d b1 3c b6 82 be bc 8c ae d4 bc
       0.033309776 0.02162803 -0.023255687 -0.025962137
000050 0e 42 cd 3c 62 2d a5 bc 25 01 60 3c 19 50 e3 bc
       0.025055911 -0.020163242 0.013672148 -0.027748154
000060 c9 2a 30 3d 00 66 50 3c e2 03 e4 bc 9e e0 bb bc
       0.043009553 0.012719631 -0.027833883 -0.022934254
000070 97 1f 53 3c d8 37 be 3c ff 08 1d 3d 00 00 00 00
       0.01288595 0.023219988 0.038338657 0.0
000080 30 d2 00 3a c4 b4 c5 bc cc 0a a5 bc a5 db bc 3c
       0.0004914133 -0.024134047 -0.02014675 0.023053953
000090 67 ba fc bb 4e e8 eb bb c6 7f b4 bc ef 30 01 3d
       -0.0077126506 -0.0071993237 -0.022033583 0.031540807
0000a0 9e 6f 33 bc 99 3f cb 3c 61 00 a8 3c fd e8 98 3c
       -0.010951905 0.0248106 0.020507993 0.018665785
0000b0 fb 2a ae 3c 00 00 00 00 97 fb 71 ba 15 72 cd 3c
       0.021260729 0.0 -0.000923091 0.025078813
0000c0 9a 57 97 bc 2d c9 e4 bc 00 52 b5 3c 40 d3 bc bc
       -0.018474389 -0.02792796 0.022133827 -0.02304995
0000d0 41 c4 a4 3c bc ea b9 b7 0f 53 da bc 8f 3b 48 3c
       0.020113112 -2.2163025e-05 -0.026650934 0.012221231
0000e0 1f 77 84 bc 53 59 dd bc 03 a3 49 3c 24 c7 66 bc
       -0.016170083 -0.027020132 0.012306931 -0.014085565
0000f0 da e7 c0 3c f9 e1 b4 3c 97 e1 ab 3c e1 2c 8b 3c
       0.023548055 0.022080408 0.020981593 0.016989173

sequential/dense/MatMul f4 [64, 10]
000000 67 bf 2f be f3 81 bb 3b 54 29 d9 bc ff 10 2f 3e
       -0.17162858 0.0057222783 -0.026508965 0.17096327
000010 5f 5e 13 3d a7 1a 5f 3e da db 27 be 6d dd 71 bd
       0.03597867 0.21787511 -0.1639246 -0.05904906
000020 c2 09 13 bd f7 4f 66 3d ec 97 75 3e c2 82 8f be
       -0.035897978 0.056228604 0.23983735 -0.28029448
000030 76 12 1e 3d 84 3c a2 bd 9b 38 8c be 4c 8b b3 bc
       0.038591824 -0.07921699 -0.27386937 -0.021917008
000040 6d cc 28 be 27 fc 69 3e 75 8a 64 3d c1 01 2d be
       -0.16484232 0.22850095 0.055796105 -0.168952
000050 00 4c da 3d af 9c 34 3e 71 4c 2b 3e 9c a3 94 bd
       0.10659027 0.17637895 0.16728379 -0.072577685
000060 4d 06 84 3e 5d 81 f3 bd 2e 68 1d be cc b6 ef 3d
       0.25786057 -0.118899085 -0.15371773 0.117047876
000070 e4 2b 9d bc 93 e5 77 3e 5f a9 0f 3e 73 08 78 be
       -0.019185968 0.2420867 0.14029454 -0.24221973
000080 9c 76 fe bd da 75 7a bd 03 88 86 3e 22 22 08 3e
       -0.12424967 -0.06114755 0.26275644 0.1329427
000090 7a 10 d9 bd 9c 87 22 3e e0 34 cc 3d a9 08 3c 3e
       -0.10598846 0.15872043 0.099710226 0.18362679
0000a0 be e9 36 be 73 97 03 bd b2 1b 08 3e c0 38 61 be
       -0.17862603 -0.032126855 0.13291815 -0.21994305
0000b0 5e 1f 56 be 76 03 02 3e b3 a9 6f bd bd 56 5c be
       -0.20910403 0.12696633 -0.058511447 -0.21517463
0000c0 5e 0d b8 3d 77 57 89 be fb 89 a1 bd 87 35 05 3e
       0.089869246 -0.26824543 -0.07887646 0.130087
0000d0 fd d8 6d 3e 2b 94 9f 3c f1 a3 c5 3d 59 d8 5e be
       0.23227306 0.019479832 0.0965041 -0.21762218
0000e0 c0 76 2c 3e 93 19 11 be c3 b7 19 be fe 8d 03 bd
       0.16842175 -0.14169912 -0.15011506 -0.032117836
0000f0 8b 4e f5 3d 5e 95 8f 3e 08 ee 2a 3e a2 ad ed bd
       0.119778715 0.28043646 0.16692364 -0.116053835
000100 9c 6f 50 bc 70 4a bf bc 26 c5 9a 3d cd 40 04 be
       -0.012721922 -0.023350924 0.07557134 -0.12915345
000110 d2 69 80 bd ee 3f 38 3e c7 e0 89 3d 56 a9 52 be
       -0.062701836 0.17993137 0.06732326 -0.20572409
000120 01 31 29 be 5c 63 3a 3e d7 ef 78 3e 43 c8 49 be
       -0.165226 0.18201965 0.24310242 -0.197053
000130 1d 43 2f 3e 20 b9 02 3e 14 2d 6f 3e a6 0e 9e be
       0.17115445 0.12765932 0.2335704 -0.3087055
000140 25 96 5f 3e f1 88 23 3e 5a 8f 88 be bf e2 08 3e
       0.2183462 0.15970208 -0.2667187 0.13367747
000150 d0 45 69 bd 4d 08 87 3e d8 5e 2a be 95 47 dd 3d
       -0.056951344 0.2637352 -0.16637743 0.10804669
000160 5c 7c 33 3e 22 d5 88 bd 3c 11 86 3e d1 11 2c 3e
       0.17527908 -0.06681277 0.26185024 0.16803671
000170 82 42 60 3e 9c 3f 89 be 7a c7 89 3e 07 82 7d be
       0.2190037 -0.26806343 0.2691 -0.24756633
000180 90 61 12 3e 7a a1 85 be d6 93 79 be af c6 3a bd
       0.1429503 -0.2609976 -0.24372801 -0.045599636
000190 fd 99 9d 3b 83 b8 4a be e7 73 45 3e ef df 46 3d
       0.0048096166 -0.19796948 0.19282494 0.048553403
0001a0 7e b6 8b 3d d7 30 d4 3d 01 61 80 be d8 33 7e 3d
       0.06821917 0.10360878 -0.25074008 0.06206116
0001b0 79 c3 e4 bd 61 cc 0e be ff 0f 2a 3e 92 03 bc 3d
       -0.11170096 -0.13945152 0.16607665 0.091803685
0001c0 14 3b 66 be 1e 50 d6 3d b0 cb 1f 3e 8f 4c e4 3c
       -0.22483474 0.104645 0.15605044 0.027868537
0001d0 d1 2a 80 3d b2 46 34 be 91 99 8c 3d 4a 96 9e 3d
       0.062581666 -0.17605093 0.06865228 0.07743509
0001e0 e3 12 d0 bd c8 2d 22 3e ea 70 9f bd 05 4f 68 be
       -0.10159852 0.15837777 -0.077852085 -0.22686394
0001f0 e9 73 c9 bd 5a c3 6f 3e dc c6 0c be c7 dc cc 3d
       -0.09836561 0.23414364 -0.13747734 0.100030474
000200 21 f6 66 3e 6d 46 10 3e e8 2d 81 3e e5 c9 dc bd
       0.22554828 0.14089365 0.25230336 -0.10780696
000210 fa 28 90 be 97 c5 6e 3e ea 3f 85 be 3d d4 ff bc
       -0.28156263 0.23317562 -0.26025325 -0.031229133
000220 ea ea 48 3b 7f 49 66 3e c8 1f e3 bc a8 d7 4e 3e
       0.0030657598 0.22488974 -0.027725115 0.20199454
000230 f5 dd 90 bc 12 a2 d1 3d 4c 39 23 bb ed 00 f1 3d
       -0.017683962 0.102359906 -0.0024905978 0.11767755
000240 81 bd 5e be 7a 93 00 3d 57 61 c7 3d c3 e3 80 3e
       -0.21751978 0.031390645 0.09735363 0.25173768
000250 5d 10 14 be ee 59 74 3e d6 01 84 bd b2 4b 3a 3e
       -0.14459367 0.2386243 -0.06445663 0.18192938
000260 f8 f5 65 3d 9a 63 5a 3e 5d 37 05 3e f9 f4 48 3d
       0.056142777 0.21327057 0.130094 0.04906175
000270 ee 77 6c 3e 02 ea 62 be fc e3 0f be 94 69 f7 bc
       0.23092625 -0.2215958 -0.14051813 -0.03020171
000280 f7 56 44 be 2d ce 23 3e d2 8b e0 3d 84 2a 1e 3c
       -0.191738 0.15996619 0.109641686 0.009653691
000290 f8 0e 92 3b 8e a1 70 3d 74 71 ed ba ce 9d 1b 3d
       0.004457351 0.05874782 -0.0018115477 0.03799229
0002a0 b9 66 61 3e 3b 46 69 be 48 f6 d6 bd cf 8c 62 bd
       0.22011842 -0.22780697 -0.10496193 -0.055310067
0002b0 4b 68 7d be ad 08 24 be df 26 0c be 31 5c 2a 3e
       -0.24746816 -0.16018935 -0.13686703 0.1663673
0002c0 98 13 32 3e 9a 05 ef 3d b7 1a 0a be 76 53 32 3d
       0.17390287 0.1167099 -0.13486753 0.043536626
0002d0 08 98 be 3d 48 b8 55 3e 27 a9 d8 bd 80 a3 06 be
       0.093063414 0.20871079 -0.10579138 -0.13148308
0002e0 d0 f8 21 3e e6 e0 3f bd 9c f5 f0 bc ad 73 45 3e
       0.1581757 -0.04684534 -0.02941399 0.19282408
0002f0 90 0e b5 bc 32 6e 14 3d 02 34 f5 bd 42 2f 34 3e
       -0.02210167 0.036237903 -0.1197281 0.17596152
000300 d1 6c 76 be 3c d6 2b bc ec 24 a1 bc 59 a9 a4 3c
       -0.24064948 -0.010488089 -0.019670926 0.020100283
000310 d7 70 22 3d 16 0c 8b bd 1f 0f 60 bb 4f 63 5d be
       0.039658394 -0.067894146 -0.00341887 -0.21619914
000320 ee 40 e7 bd 8c 6a 1c be fe d5 69 be b0 c9 56 3e
       -0.11291681 -0.1527502 -0.22835538 0.20975375
000330 60 6c 51 3e 47 24 22 bd 36 21 25 be 44 bb 50 3e
       0.20451498 -0.039585378 -0.1612595 0.20383936
000340 76 ba 81 3e ca b2 6e be 5b 77 b5 bc 5f 01 79 bd
       0.2533757 -0.2331039 -0.02215164 -0.060792323
000350 f4 36 6a 3e 0d f9 52 be 1f fa 22 3e ef 9d 13 3d
       0.22872525 -0.20602818 0.15915726 0.03603929
000360 e1 1a 86 be d2 dd c6 bd 97 38 99 be fb 1c 62 3e
       -0.26192382 -0.097102776 -0.29925987 0.22081368
000370 2d e1 79 bd f7 ed 87 be 16 af 10 3c 15 29 3d 3d
       -0.06100576 -0.2654874 0.008830806 0.046181757
000380 82 c4 2f 3e b6 b8 c4 3b 98 ae 65 be 3b 36 a3 bd
       0.17164806 0.0060034646 -0.22429883 -0.07969328
000390 a9 20 68 bd 1f 84 3b 3e 66 37 8e 3d 37 28 b1 3d
       -0.056671772 0.18312119 0.0694416 0.086502485
0003a0 93 86 0b be 48 87 16 be ca d4 98 be e6 a2 1a 3e
       -0.13625555 -0.14700043 -0.29849845 0.15101203
0003b0 99 1a 8c be 2e fa 49 be 3d 50 71 3e e0 ee f7 bc
       -0.27364042 -0.19724342 0.23565765 -0.030265272
0003c0 3f 9a 05 3e 77 b9 35 be e7 07 87 bd 6e ce d8 3c
       0.13047121 -0.1774653 -0.06593304 0.02646562
0003d0 8d 22 68 bc 37 bb 36 be 35 d2 a5 3b ec b9 98 bb
       -0.014168394 -0.17844854 0.005060459 -0.0046608355
0003e0 7e b9 89 3e ac 2a 83 bb 39 78 4d 3e bf c9 91 3e
       0.26899332 -0.0040028896 0.20065393 0.28474233
0003f0 e6 88 87 3e 31 f5 81 be c9 1f 4c be 63 98 b3 3d
       0.26471633 -0.2538238 -0.19934 0.087693

sequential/dense_1/MatMul f4 [1, 64]
000000 fb 9d 4c 3e 25 c3 0f 3d 57 82 87 3d 84 1a cd 3d
       0.1998214 0.035098214 0.06616657 0.10014823
000010 f4 77 dc 3c 6d fc 7f be 5b 14 6c 3d be 80 86 be
       0.026912667 -0.24998637 0.0576366 -0.26270097
000020 c0 60 8a 3c f9 89 f8 3d 72 ac 89 be a9 3b 2d 3e
       0.016891837 0.12135691 -0.26889378 0.1691729
000030 eb 0c 87 3e f8 9a 58 3e 9f a4 50 3e 99 7a c4 3d
       0.26377043 0.21152866 0.20375298 0.09593696
000040 24 20 42 3e 25 79 d7 3d 24 a9 50 be 31 fa 80 bd
       0.18957573 0.10521153 -0.20377022 -0.0629772
000050 26 70 1b 3e 73 fa 73 bd e5 5e 39 3e 57 3f f7 bd
       0.151795 -0.05956502 0.18102606 -0.12072628
000060 12 78 aa 3e 7e e1 30 3d 83 f5 7d be bb cf 7d be
       0.3329473 0.043183796 -0.24800687 -0.24786274
000070 01 7d 6d be b6 7b 92 3e 42 16 b1 3e 28 0a 88 3e
       -0.23192216 0.2861001 0.34587294 0.2657025
000080 6b ff 87 3e 4b a7 86 be 94 7f 5a be 58 22 e8 3d
       0.26562056 -0.2629951 -0.2133773 0.113346756
000090 1a 45 3e 3d 8e 70 84 be 79 fa 0c be 11 6a 8c 3d
       0.04645262 -0.25867122 -0.13767423 0.06856168
0000a0 2c 78 16 be 98 24 20 3d 21 8a 21 3d 97 fb a4 3d
       -0.1469428 0.0390974 0.03943837 0.080557995
0000b0 c5 fd 93 3e c5 c9 13 be c4 92 8d be aa bd 8d 3d
       0.28904548 -0.14432438 -0.27651036 0.06920941
0000c0 60 e5 6b be 22 10 16 be de 0c 32 3e ea dc 07 be
       -0.23036718 -0.14654592 0.17387721 -0.13267866
0000d0 42 84 2b 3d 39 cd 4f 3e 6a 97 95 bc 51 7a 50 3e
       0.041874178 0.2029313 -0.018260676 0.2035916
0000e0 6e a1 e9 bc 83 1e 84 be ff 54 6d be c2 b0 80 be
       -0.028519358 -0.2580453 -0.23176955 -0.25134856
0000f0 b4 78 b4 3d db 8e e3 3d d2 d2 82 3e bf 35 1c 3e
       0.08812085 0.11111232 0.25551468 0.15254878
