src/edgeDevice/models/model_quantized.tflite (tflite, 255336 bytes, 8 tensors)

sequential_1/lstm_1/Read_2/ReadVariableOp f4 [896]
0	0x3cc5fdfd	0.024168963
1	0x3b5a7c34	0.003333819
2	0x3d7a16f2	0.06105704
3	0x3c2f78ed	0.010709983
4	0x3d7d6874	0.061867192
5	0x3df75730	0.120771766
6	0x3d8d0a5a	0.0688674
7	0xba1b4252	-0.0005922663
8	0x3cd9f62b	0.02660664
9	0x3ba28fcf	0.004960991
10	0x3d8ce039	0.068787046
11	0x3beb632f	0.0071834545
12	0x3db46489	0.08808238
13	0x3d9f8ac3	0.077901386
14	0x3d2f4ca3	0.042797696
15	0xbcb6b79b	-0.022304347
16	0x3cbb1ee5	0.02284188
17	0x3b73fe09	0.0037230274
18	0x3b3ea2fd	0.0029088848
19	0x3c6f7864	0.014616106
20	0x3d1c90b4	0.038223937
21	0x3cdc889a	0.026920605
22	0x3cfcbf95	0.030853072
23	0x3d1ddf3b	0.038542967
24	0xbc05a915	-0.008157988
25	0xbb4d318c	-0.003131005
26	0xbc411e88	-0.011787064
27	0x3d8ff21a	0.07028599
28	0x3b2505c2	0.0025180434
29	0x3ba3e8d2	0.0050021196
30	0x3d46f87d	0.04857682
31	0x3ce58b9c	0.028020673
32	0x3dccb6fd	0.0999584
33	0xbc941165	-0.0180747
34	0x3e9129ea	0.2835229
35	0x3d35cf7f	0.044387337
36	0xbb866690	-0.004101582
37	0xba72bbd2	-0.0009259555
38	0xbbc25a1a	-0.005931151
39	0x3c9c4f82	0.019080881
40	0x3cb3c216	0.021943133
41	0x3b93c7cb	0.004509901
42	0x3da597b6	0.08085577
43	0x3e34f79f	0.17672585
44	0x3db73548	0.089457095
45	0x3d6ee2ec	0.05832188
46	0x3cd73a86	0.026273023
47	0x3d9ce780	0.076613426
48	0xbca7b9bf	-0.020474313
49	0xbb6e1ce2	-0.0036333133
50	0x3d337c22	0.043819554
51	0xbc7cccd1	-0.015429691
52	0x3b39b92b	0.0028339128
53	0x3d2c60c6	0.042084478
54	0x3da4c08a	0.080445364
55	0x3d8da54d	0.06916294
56	0xbc3c64ae	-0.011498613
57	0x3d572091	0.052521292
58	0x3db32171	0.08746613
59	0x3c90c88b	0.017673751
60	0x3ca178a7	0.019710852
61	0x3c9f9a21	0.019482674
62	0x3d3407b1	0.043952648
63	0x3c151802	0.009099962
64	0x3b005e05	0.001958729
65	0x3dcaa024	0.09893826
66	0xbd58928b	-0.05287413
67	0x3cb85f76	0.022506457
68	0x3d080611	0.03320891
69	0x3e2222c5	0.15833576
70	0x3e18eb19	0.14933433
71	0x3d0d14d4	0.03444369
72	0x3d02e507	0.0319567
73	0x3db83943	0.08995297
74	0xb8f6a9a5	-0.00011761793
75	0xbc02ab3c	-0.007975396
76	0x3e387bd9	0.18015994
77	0x3d80a086	0.062806174
78	0x3e0be887	0.13662921
79	0x3b38f7ff	0.002822399
80	0x3c43f8cb	0.011961172
81	0x3e129d35	0.14317782
82	0x3d4df842	0.050285585
83	0x3c85597e	0.016278025
84	0x3d88653a	0.066599324
85	0x3b9a7ec5	0.004714819
86	0x3bea4382	0.007149161
87	0x3d1f0725	0.038825173
88	0x3e353268	0.1769501
89	0x3e23fd7b	0.16014664
90	0x3e19eb0c	0.1503107
91	0x3c13d8ef	0.009023889
92	0x3cc46eb6	0.023978572
93	0x3db3e0e3	0.08783128
94	0x3d7a0603	0.06104089
95	0x3d350031	0.044189636
96	0x3da9513d	0.08267448
97	0xbcb1ada2	-0.02168924
98	0xbc138bec	-0.009005528
99	0x3d4517f2	0.04811854
100	0x3cb29712	0.021800552
101	0x3bf458b2	0.0074568624
102	0x3d030689	0.031988654
103	0x3c3bb32d	0.011456293
104	0x3d0b1fe3	0.033965956
105	0x3d6667d4	0.056251362
106	0xbb87883d	-0.004136114
107	0xba8e0208	-0.0010834346
108	0x3dbfacff	0.09359168
109	0x3d4e2cea	0.050335802
110	0xbb5ca7ec	-0.0033669425
111	0x3e554fd5	0.20831235
112	0x3d9016e8	0.07035619
113	0x3bd83936	0.006598617
114	0x3d9ad225	0.07559613
115	0x3d56bc4f	0.05242568
116	0x3d215ea2	0.03939689
117	0xbd2b23e9	-0.041782293
118	0x3ac767b3	0.00152134
119	0x3db03bae	0.08605133
120	0xbcdb5f0a	-0.026778717
121	0x3d318a9d	0.043345083
122	0x3e6c36af	0.23067735
123	0x3d69be71	0.057066385
124	0x3d3e110f	0.046402987
125	0x3e61c7e3	0.22048907
126	0x3d18f71a	0.03734503
127	0x3e5d7fcb	0.2163078
128	0x3c9cc774	0.019138075
129	0x3d3b5f0b	0.045744937
130	0x3d099038	0.033584803
131	0xbc64cb13	-0.013964432
132	0x3aa01bfb	0.001221537
133	0x3c6e0151	0.014526681
134	0x3ca7950e	0.020456817
135	0x3c90d704	0.017680652
136	0xbbdbe7d1	-0.0067109843
137	0x3e025612	0.12728146
138	0xbcc771d3	-0.024346268
139	0x3d103caf	0.035214122
140	0x3d8a1865	0.06742934
141	0x3dea82a1	0.11450697
142	0x3cd847b1	0.026401373
143	0x3cd69515	0.026194135
144	0x3d121d77	0.03567263
145	0x3c81569d	0.01578837
146	0x3dc15b4c	0.094412416
147	0x3e28c2d7	0.16480576
148	0x3ca7f08c	0.020500444
149	0x3caed3db	0.021341255
150	0x3cb880c7	0.022522343
151	0x3d1597d8	0.036521763
152	0x3d24fb43	0.040278684
153	0x3d1563bb	0.036472064
154	0x3df78633	0.12086143
155	0x3d136879	0.035988305
156	0x3d3a72ec	0.045519754
157	0x3c1c3769	0.009534695
158	0x3e154447	0.14576827
159	0xbca2da73	-0.019879555
160	0x3cf0f65e	0.029414352
161	0x3c6133b3	0.013745236
162	0x3d5b8202	0.053590782
163	0x3d7c0e34	0.061536983
164	0x3cc82a61	0.02443427
165	0x3d2bbf67	0.041930582
166	0x3d3b961a	0.045797445
167	0x3d9cd138	0.07657093
168	0xbbd92211	-0.0066263755
169	0x3d797eee	0.060912065
170	0x3d2b97e5	0.041892905
171	0xbba7b399	-0.0051178453
172	0x3d97b243	0.074070476
173	0x3d7f36c0	0.062308073
174	0x3b72e54c	0.003706294
175	0x3d739847	0.059471395
176	0x3ce55498	0.027994439
177	0xbcb4e513	-0.022081887
178	0xbc69af7d	-0.014263031
179	0xbc8dd680	-0.017314196
180	0x3cdb9284	0.026803263
181	0x3e2077aa	0.15670648
182	0x3d33265a	0.043737747
183	0x3c3cda58	0.011526667
184	0x3cfc62e5	0.030808875
185	0x3d4fc917	0.050728884
186	0x3d2cdae0	0.042200923
187	0xbb63e691	-0.003477488
188	0x3e08f661	0.13375236
189	0xbd0c7a74	-0.034296468
190	0x3d2e1e68	0.042509466
191	0x3d0e872c	0.03479688
192	0x3cd6cdfd	0.02622127
193	0xbcc40171	-0.023926469
194	0x3d59349d	0.05302869
195	0x3d59296a	0.05301801
196	0x3c731684	0.014836911
197	0x3c2b72d6	0.010464391
198	0x3cc82d2f	0.024435608
199	0x3da6f4fe	0.08152197
200	0x3d114173	0.035462808
201	0x3cd8fa87	0.026486648
202	0x3d227f6c	0.0396723
203	0x3d309fc3	0.04312111
204	0x3cada80d	0.021198297
205	0x3c764928	0.01503209
206	0xbc8d1ceb	-0.017225703
207	0x3d0c2b0c	0.03422074
208	0x3ded6d64	0.1159313
209	0x3b756f6c	0.0037450446
210	0x3cba0b38	0.022710428
211	0x3b631b00	0.0034653544
212	0xbc8967dd	-0.016773159
213	0x3c84e997	0.016224666
214	0x3dc2074f	0.0947405
215	0x3ddaa6ce	0.10676347
216	0x3d6d87df	0.057990905
217	0x3e338289	0.17530264
218	0x3e8fff81	0.28124622
219	0x3cdf8cef	0.027288882
220	0x3d16fd00	0.036862373
221	0xbce05768	-0.027385429
222	0x3cc464ef	0.02397391
223	0x3d3987e6	0.04529562
224	0x3f82be58	1.0214338
225	0x3f79d9d6	0.97598016
226	0x3f8263cb	1.0186704
227	0x3f712bf3	0.94207686
228	0x3f784984	0.96987176
229	0x3f847bda	1.0350296
230	0x3f809d48	1.0047998
231	0x3f79cca2	0.9757787
232	0x3f72efdc	0.94897246
233	0x3f80c5d5	1.0060374
234	0x3f74f358	0.95683813
235	0x3f83a4ff	1.0284728
236	0x3f7035e7	0.9383225
237	0x3f728b8a	0.9474417
238	0x3f759ace	0.9593934
239	0x3f7335de	0.9500407
240	0x3f79d20b	0.97586125
241	0x3f7b0843	0.9805948
242	0x3f70835f	0.93950456
243	0x3f7c70d4	0.9860966
244	0x3f753904	0.95790124
245	0x3f7171d0	0.9431429
246	0x3f804b76	1.0023029
247	0x3f80fa00	1.0076294
248	0x3f770d86	0.9650501
249	0x3f7dfb39	0.9921146
250	0x3f7dd5f1	0.99154574
251	0x3f77ae7f	0.96750635
252	0x3f808927	1.0041856
253	0x3f70c5d6	0.94051874
254	0x3f85d95f	1.0456961
255	0x3f7fbbb1	0.9989577

sequential_1/dense_3/BiasAdd/ReadVariableOp f4 [42]
0	0x3d32d093	0.043655943
1	0x3d418bb0	0.047252357
2	0x3defed75	0.11715213
3	0x3cd8b1fd	0.026452059
4	0xbb264b0c	-0.0025374321
5	0x3c7786e7	0.015107847
6	0x3c9991c9	0.018746274
7	0x3d35daec	0.044398233
8	0x3d59c738	0.053168505
9	0x3e13f693	0.1444953
10	0x3d236e81	0.039900307
11	0xbb82f94f	-0.003997005
12	0x3b092572	0.002092686
13	0x3ce168db	0.02751582
14	0x3d672bbb	0.05643819
15	0x3d349be1	0.04409397
16	0x3e17f564	0.14839703
17	0x3cf797fc	0.030223839
18	0x3cbaa56d	0.02278396
19	0xbbfd2c65	-0.0077262395
20	0x3d3007f4	0.042976335
21	0x3d2b0678	0.041754216
22	0x3d37a878	0.0448384
23	0x3e0c19fb	0.13681786
24	0x3d122e94	0.03568895
25	0x3bff9397	0.0077995765
26	0x3bfa6be5	0.0076422566
27	0x3d4348f2	0.047676988
28	0x3ce4b9c4	0.027920611
29	0x3d723295	0.05913027
30	0x3e14dcd9	0.14537372
31	0x3d1284f0	0.03577131
32	0xba72351e	-0.00092394825
33	0x3c1c5cdf	0.009543627
34	0x3d2f922a	0.042864002
35	0x3d31b63e	0.04338669
36	0x3d5bd26a	0.053667463
37	0x3e0f5797	0.13998257
38	0x3d24aca0	0.04020369
39	0x3a58fb74	0.00082772155
40	0xba8bc779	-0.0010664306
41	0x3d2b83cc	0.04187374

sequential_1/dense_2/BiasAdd/ReadVariableOp f4 [112]
0	0xbbf84f75	-0.0075778314
1	0x3df098d6	0.11747901
2	0x3dd4aa90	0.10384095
3	0x3da25a74	0.07927409
4	0xbc380769	-0.0112322355
5	0xbda87d21	-0.082269914
6	0xbd532ffb	-0.05155943
7	0xbd57a558	-0.05264792
8	0xbda671f9	-0.08127207
9	0xbc6ce00f	-0.014457717
10	0xbd8b88e3	-0.068132184
11	0xbcd06e63	-0.025443261
12	0xbd1a8aec	-0.037730142
13	0xbd0c6eea	-0.034285463
14	0xbd019cd5	-0.031643707
15	0x3d2b360f	0.0417996
16	0xbd4db493	-0.050221037
17	0x3dfd470e	0.12367068
18	0x3ca2cdb2	0.019873474
19	0x3df1764e	0.11790143
20	0x3dc06051	0.09393371
21	0xbcf5dc58	-0.030012295
22	0x3e11b1a1	0.14227916
23	0xbcf4957b	-0.029856434
24	0x3bc93d0b	0.00614131
25	0x3acb644b	0.001551756
26	0xbd0c0a61	-0.034189586
27	0xbdae4eac	-0.08511099
28	0xbd172d44	-0.036908403
29	0x3e1033a6	0.14082202
30	0x3d3bb492	0.045826502
31	0x3d8695a1	0.06571508
32	0x3d3ab875	0.04558607
33	0xbd803ad9	-0.06261224
34	0x3d5deb6f	0.054179605
35	0xbbcb45e4	-0.0062034
36	0x3cb090ec	0.02155348
37	0xbc3f9ef6	-0.011695614
38	0x3d464fe1	0.048416022
39	0xbccf83f1	-0.02533147
40	0x3d027929	0.03185383
41	0x3cce3e82	0.02517629
42	0xbd00d691	-0.031454626
43	0x3b89cd7e	0.004205405
44	0x3e029dd2	0.12755516
45	0x3e1cb90a	0.15304962
46	0x3d7e93f5	0.06215282
47	0xbdb3b5b7	-0.08774894
48	0x3ded43dd	0.115852095
49	0xbca9231d	-0.020646626
50	0xbc7052cb	-0.014668177
51	0xbdb0cbe6	-0.086326405
52	0xbd5af7b0	-0.05345887
53	0xbc2cd48a	-0.01054872
54	0xbcd8104c	-0.026374958
55	0x3e040c2e	0.12895271
56	0xbb4c71cb	-0.0031195756
57	0x3d67e7ac	0.056617424
58	0x3ce8ce9a	0.028418828
59	0xbd526113	-0.05136211
60	0x3dc42243	0.095768474
61	0x3d1dd789	0.03853563
62	0x3d742825	0.059608597
63	0x3dbe5451	0.09293426
64	0x3d4eb942	0.050469644
65	0x3ddc9402	0.10770418
66	0x3d851005	0.06497196
67	0xbd7d52cb	-0.061846536
68	0x3c81a013	0.0158234
69	0x3dd04d7b	0.10171028
70	0x3d0543c4	0.03253533
71	0xbd281023	-0.041031014
72	0xbcb01e52	-0.021498833
73	0x3ddf315d	0.10898087
74	0x3d65371b	0.055960756
75	0xbcf4d75b	-0.029887846
76	0xbd135323	-0.035967957
77	0xbd5b35dd	-0.053518165
78	0x3d542601	0.051794056
79	0x3df0b7fa	0.11753841
80	0xbc892bcf	-0.016744522
81	0xbd92c351	-0.0716616
82	0xbcad3957	-0.021145506
83	0xbd0d915d	-0.034562457
84	0xbdb8a235	-0.090153135
85	0xbda71c3e	-0.08159684
86	0x3cde4093	0.0271304
87	0x3db933f5	0.09043113
88	0x3d4b365b	0.049612384
89	0xbcb28fed	-0.021797145
90	0xbc7f7e9d	-0.015594152
91	0xbd7fb251	-0.062425915
92	0x3dcaab8f	0.098960035
93	0xbd6a6da3	-0.057233464
94	0xbd84116d	-0.06448636
95	0xbc9e48de	-0.019321855
96	0x3d6948a9	0.05695406
97	0x3df6416a	0.120241955
98	0x3e24284e	0.16031
99	0xbd70a42b	-0.058750313
100	0x3e0f08ff	0.13968275
101	0x3d98fc1e	0.074699625
102	0x3cedb335	0.029016117
103	0x3d6ae7ff	0.057350155
104	0x3d83c873	0.06434717
105	0xbcaeddfc	-0.021346085
106	0xbd3cad96	-0.046063982
107	0xbd857796	-0.0651695
108	0x3d33c598	0.043889612
109	0xbdb7603c	-0.08953902
110	0x3e41f0f4	0.18939573
111	0xbce3ff87	-0.027831806

sequential_1/dense_2/MatMul i1 [112, 224] scale=0.0026625632 zero_point=0
0	0x04	0.010650253
1	0x32	0.13312817
2	0x3a	0.15442866
3	0x00	0.0
4	0x12	0.04792614
5	0x27	0.10383996
6	0xcb	-0.14111584
7	0x0e	0.037275884
8	0xd6	-0.11182766
9	0x31	0.1304656
10	0xd5	-0.11449022
11	0xe6	-0.069226645
12	0x02	0.0053251265
13	0xd8	-0.10650253
14	0xc5	-0.15709123
15	0xea	-0.05857639
16	0x42	0.17572917
17	0x37	0.14644098
18	0x25	0.09851484
19	0xda	-0.1011774
20	0x31	0.1304656
21	0x3a	0.15442866
22	0x31	0.1304656
23	0xea	-0.05857639
24	0x24	0.09585228
25	0x47	0.18904199
26	0x18	0.063901514
27	0xbb	-0.18371686
28	0xdb	-0.09851484
29	0x0f	0.03993845
30	0xe7	-0.06656408
31	0xfb	-0.013312817
32	0xec	-0.053251266
33	0x30	0.12780303
34	0xfb	-0.013312817
35	0xe6	-0.069226645
36	0x25	0.09851484
37	0xe3	-0.07721433
38	0x08	0.021300506
39	0x23	0.09318972
40	0xe9	-0.061238956
41	0x0f	0.03993845
42	0x3c	0.1597538
43	0x0f	0.03993845
44	0x40	0.17040405
45	0x41	0.17306662
46	0xef	-0.045263574
47	0x00	0.0
48	0x38	0.14910354
49	0x20	0.08520202
50	0x28	0.10650253
51	0xd2	-0.12247791
52	0xe3	-0.07721433
53	0xdf	-0.087864585
54	0x0d	0.034613322
55	0xed	-0.0505887
56	0xfb	-0.013312817
57	0x06	0.015975378
58	0x0b	0.029288195
59	0xe8	-0.063901514
60	0x0b	0.029288195
61	0xdf	-0.087864585
62	0xca	-0.14377841
63	0x27	0.10383996
64	0xf1	-0.03993845
65	0x03	0.007987689
66	0xfa	-0.015975378
67	0xd6	-0.11182766
68	0xcc	-0.13845329
69	0x1b	0.07188921
70	0xe9	-0.061238956
71	0x30	0.12780303
72	0xe5	-0.07188921
73	0x44	0.1810543
74	0x0f	0.03993845
75	0xcf	-0.1304656
76	0x26	0.1011774
77	0xf8	-0.021300506
78	0xd4	-0.11715278
79	0xdb	-0.09851484
80	0xf5	-0.029288195
81	0xbe	-0.17572917
82	0x05	0.013312817
83	0x0f	0.03993845
84	0x25	0.09851484
85	0xe1	-0.08253946
86	0xe8	-0.063901514
87	0x1e	0.0798769
88	0x2a	0.11182766
89	0x02	0.0053251265
90	0x12	0.04792614
91	0xcf	-0.1304656
92	0x24	0.09585228
93	0xe4	-0.07455177
94	0x36	0.14377841
95	0xf5	-0.029288195
96	0x2f	0.12514047
97	0x06	0.015975378
98	0x11	0.045263574
99	0xf2	-0.037275884
100	0xfc	-0.010650253
101	0x46	0.18637943
102	0x25	0.09851484
103	0x44	0.1810543
104	0xdf	-0.087864585
105	0x37	0.14644098
106	0xcc	-0.13845329
107	0xf0	-0.04260101
108	0x2d	0.11981534
109	0x19	0.06656408
110	0x07	0.018637942
111	0x07	0.018637942
112	0xe6	-0.069226645
113	0xc2	-0.16507892
114	0xf3	-0.034613322
115	0x26	0.1011774
116	0x1c	0.07455177
117	0x0f	0.03993845
118	0xda	-0.1011774
119	0x42	0.17572917
120	0x09	0.02396307
121	0x3a	0.15442866
122	0x18	0.063901514
123	0x07	0.018637942
124	0xf4	-0.031950757
125	0xe7	-0.06656408
126	0xe4	-0.07455177
127	0x10	0.04260101
128	0xea	-0.05857639
129	0x09	0.02396307
130	0x19	0.06656408
131	0x05	0.013312817
132	0x23	0.09318972
133	0x07	0.018637942
134	0x05	0.013312817
135	0xfa	-0.015975378
136	0x3f	0.16774148
137	0x01	0.0026625632
138	0xe8	-0.063901514
139	0xd2	-0.12247791
140	0x28	0.10650253
141	0x16	0.05857639
142	0x2e	0.12247791
143	0xfd	-0.007987689
144	0xf7	-0.02396307
145	0xef	-0.045263574
146	0x3d	0.16241635
147	0xc6	-0.15442866
148	0x3a	0.15442866
149	0xd9	-0.10383996
150	0xab	-0.22631787
151	0x2a	0.11182766
152	0xe8	-0.063901514
153	0xdb	-0.09851484
154	0x18	0.063901514
155	0x35	0.14111584
156	0x1b	0.07188921
157	0xd7	-0.109165095
158	0xeb	-0.05591383
159	0xf3	-0.034613322
160	0xb1	-0.2103425
161	0x2c	0.11715278
162	0xda	-0.1011774
163	0xb6	-0.19702968
164	0xf1	-0.03993845
165	0xe6	-0.069226645
166	0x3e	0.16507892
167	0xf1	-0.03993845
168	0xe0	-0.08520202
169	0x2a	0.11182766
170	0x27	0.10383996
171	0xf1	-0.03993845
172	0xeb	-0.05591383
173	0x0c	0.031950757
174	0x03	0.007987689
175	0x48	0.19170456
176	0xe2	-0.0798769
177	0x0b	0.029288195
178	0xfa	-0.015975378
179	0x2e	0.12247791
180	0xba	-0.18637943
181	0x35	0.14111584
182	0x10	0.04260101
183	0xe5	-0.07188921
184	0x0a	0.026625633
185	0xd8	-0.10650253
186	0xf6	-0.026625633
187	0xef	-0.045263574
188	0x2c	0.11715278
189	0xf2	-0.037275884
190	0x46	0.18637943
191	0x11	0.045263574
192	0xed	-0.0505887
193	0x16	0.05857639
194	0x00	0.0
195	0xe9	-0.061238956
196	0xe8	-0.063901514
197	0xda	-0.1011774
198	0x25	0.09851484
199	0x35	0.14111584
200	0xe2	-0.0798769
201	0x33	0.13579072
202	0x04	0.010650253
203	0x29	0.109165095
204	0xfa	-0.015975378
205	0xe2	-0.0798769
206	0xe7	-0.06656408
207	0xf4	-0.031950757
208	0x27	0.10383996
209	0x44	0.1810543
210	0xec	-0.053251266
211	0x1c	0.07455177
212	0x0f	0.03993845
213	0x20	0.08520202
214	0x04	0.010650253
215	0x22	0.09052715
216	0xc4	-0.1597538
217	0x02	0.0053251265
218	0x5b	0.24229325
219	0x18	0.063901514
220	0x40	0.17040405
221	0x0b	0.029288195
222	0xe9	-0.061238956
223	0xe3	-0.07721433
224	0xed	-0.0505887
225	0xce	-0.13312817
226	0x2a	0.11182766
227	0xf4	-0.031950757
228	0xe5	-0.07188921
229	0x0a	0.026625633
230	0xff	-0.0026625632
231	0xf9	-0.018637942
232	0x24	0.09585228
233	0xef	-0.045263574
234	0x16	0.05857639
235	0xeb	-0.05591383
236	0xf8	-0.021300506
237	0xec	-0.053251266
238	0x18	0.063901514
239	0x0d	0.034613322
240	0x09	0.02396307
241	0x1d	0.07721433
242	0x07	0.018637942
243	0xf4	-0.031950757
244	0xd9	-0.10383996
245	0xe4	-0.07455177
246	0x03	0.007987689
247	0xfb	-0.013312817
248	0xeb	-0.05591383
249	0x21	0.087864585
250	0xfb	-0.013312817
251	0x14	0.053251266
252	0xf4	-0.031950757
253	0x1f	0.08253946
254	0x01	0.0026625632
255	0x0d	0.034613322

sequential_1/dense_3/MatMul i1 [42, 112] scale=0.0034052585 zero_point=0
0	0x03	0.010215776
1	0x0b	0.037457842
2	0x06	0.020431552
3	0x18	0.08172621
4	0x1e	0.10215776
5	0x2c	0.14983137
6	0x02	0.006810517
7	0x08	0.027242068
8	0x25	0.12599456
9	0x28	0.13621034
10	0x00	0.0
11	0x09	0.030647326
12	0xe9	-0.07832094
13	0xd0	-0.16345242
14	0xbf	-0.2213418
15	0x10	0.054484136
16	0xcd	-0.17366819
17	0x32	0.17026293
18	0x11	0.057889394
19	0xf8	-0.027242068
20	0x2b	0.14642611
21	0x19	0.08513147
22	0x13	0.06469991
23	0x18	0.08172621
24	0xed	-0.06469991
25	0xe5	-0.09194198
26	0x09	0.030647326
27	0x18	0.08172621
28	0x3e	0.21112603
29	0x0e	0.04767362
30	0x12	0.061294653
31	0xfc	-0.013621034
32	0xf6	-0.034052584
33	0xf7	-0.030647326
34	0x24	0.122589305
35	0x30	0.16345242
36	0xff	-0.0034052585
37	0xe2	-0.10215776
38	0xe3	-0.0987525
39	0x08	0.027242068
40	0xed	-0.06469991
41	0xfc	-0.013621034
42	0x0e	0.04767362
43	0xfe	-0.006810517
44	0xf9	-0.02383681
45	0x01	0.0034052585
46	0xde	-0.11577879
47	0xd4	-0.14983137
48	0x06	0.020431552
49	0xe2	-0.10215776
50	0x36	0.18388397
51	0x2d	0.15323663
52	0x08	0.027242068
53	0xeb	-0.07151043
54	0x05	0.017026292
55	0xef	-0.057889394
56	0xdb	-0.12599456
57	0xff	-0.0034052585
58	0x23	0.11918405
59	0xd8	-0.13621034
60	0x08	0.027242068
61	0xeb	-0.07151043
62	0x0c	0.040863104
63	0x2d	0.15323663
64	0x13	0.06469991
65	0xe6	-0.088536724
66	0x40	0.21793655
67	0x0f	0.05107888
68	0x19	0.08513147
69	0x23	0.11918405
70	0xe6	-0.088536724
71	0xd4	-0.14983137
72	0xdb	-0.12599456
73	0x12	0.061294653
74	0xe9	-0.07832094
75	0x12	0.061294653
76	0xe4	-0.09534724
77	0x01	0.0034052585
78	0x16	0.074915685
79	0xef	-0.057889394
80	0x17	0.07832094
81	0x18	0.08172621
82	0xfc	-0.013621034
83	0x11	0.057889394
84	0x0d	0.044268362
85	0x02	0.006810517
86	0x36	0.18388397
87	0xe7	-0.08513147
88	0x32	0.17026293
89	0x26	0.12939982
90	0x25	0.12599456
91	0x30	0.16345242
92	0x21	0.11237353
93	0x11	0.057889394
94	0xec	-0.06810517
95	0xe2	-0.10215776
96	0xfa	-0.020431552
97	0x2e	0.15664189
98	0xda	-0.12939982
99	0x0a	0.034052584
100	0xe3	-0.0987525
101	0x3d	0.20772077
102	0xfc	-0.013621034
103	0x22	0.11577879
104	0x11	0.057889394
105	0xe0	-0.10896827
106	0xde	-0.11577879
107	0xd5	-0.14642611
108	0xdd	-0.11918405
109	0x34	0.17707345
110	0xe4	-0.09534724
111	0x31	0.16685767
112	0x0a	0.034052584
113	0x12	0.061294653
114	0x09	0.030647326
115	0x35	0.1804787
116	0xeb	-0.07151043
117	0xf3	-0.044268362
118	0xf3	-0.044268362
119	0x0e	0.04767362
120	0x01	0.0034052585
121	0x02	0.006810517
122	0x14	0.06810517
123	0xe5	-0.09194198
124	0xeb	-0.07151043
125	0xf1	-0.05107888
126	0xfc	-0.013621034
127	0xec	-0.06810517
128	0xf4	-0.040863104
129	0x1d	0.0987525
130	0x37	0.18728922
131	0x0d	0.044268362
132	0xfb	-0.017026292
133	0x00	0.0
134	0xf5	-0.037457842
135	0xfd	-0.010215776
136	0xeb	-0.07151043
137	0xfb	-0.017026292
138	0x05	0.017026292
139	0xf7	-0.030647326
140	0xf8	-0.027242068
141	0xf0	-0.054484136
142	0x02	0.006810517
143	0x04	0.013621034
144	0x12	0.061294653
145	0xf7	-0.030647326
146	0x08	0.027242068
147	0x24	0.122589305
148	0x04	0.013621034
149	0x4b	0.2553944
150	0x11	0.057889394
151	0x24	0.122589305
152	0x0d	0.044268362
153	0x11	0.057889394
154	0xe0	-0.10896827
155	0xfe	-0.006810517
156	0x0e	0.04767362
157	0xf6	-0.034052584
158	0x05	0.017026292
159	0xe3	-0.0987525
160	0x14	0.06810517
161	0xff	-0.0034052585
162	0xd2	-0.15664189
163	0xd6	-0.14302085
164	0x19	0.08513147
165	0x14	0.06810517
166	0x00	0.0
167	0xe5	-0.09194198
168	0xda	-0.12939982
169	0xdb	-0.12599456
170	0xfc	-0.013621034
171	0x0a	0.034052584
172	0xfa	-0.020431552
173	0xe6	-0.088536724
174	0xec	-0.06810517
175	0x1c	0.09534724
176	0x01	0.0034052585
177	0xfa	-0.020431552
178	0xfa	-0.020431552
179	0x0e	0.04767362
180	0xeb	-0.07151043
181	0xed	-0.06469991
182	0xf8	-0.027242068
183	0x02	0.006810517
184	0xf6	-0.034052584
185	0x2f	0.16004714
186	0xe8	-0.08172621
187	0xe5	-0.09194198
188	0xf0	-0.054484136
189	0x12	0.061294653
190	0x09	0.030647326
191	0x2f	0.16004714
192	0xf3	-0.044268362
193	0x01	0.0034052585
194	0x26	0.12939982
195	0x0e	0.04767362
196	0xfa	-0.020431552
197	0xf2	-0.04767362
198	0x0b	0.037457842
199	0x2d	0.15323663
200	0x11	0.057889394
201	0x1d	0.0987525
202	0x17	0.07832094
203	0x06	0.020431552
204	0x39	0.19409974
205	0xfe	-0.006810517
206	0x11	0.057889394
207	0xe1	-0.105563015
208	0x08	0.027242068
209	0xe1	-0.105563015
210	0x01	0.0034052585
211	0x1c	0.09534724
212	0xe2	-0.10215776
213	0x05	0.017026292
214	0xe5	-0.09194198
215	0x08	0.027242068
216	0xfc	-0.013621034
217	0xdf	-0.11237353
218	0xcf	-0.16685767
219	0x06	0.020431552
220	0x01	0.0034052585
221	0x14	0.06810517
222	0x21	0.11237353
223	0x29	0.1396156
224	0x03	0.010215776
225	0x2c	0.14983137
226	0x0f	0.05107888
227	0x11	0.057889394
228	0xe7	-0.08513147
229	0x04	0.013621034
230	0x1a	0.088536724
231	0xe5	-0.09194198
232	0xfb	-0.017026292
233	0xd6	-0.14302085
234	0x0d	0.044268362
235	0x31	0.16685767
236	0xbf	-0.2213418
237	0x11	0.057889394
238	0x09	0.030647326
239	0x07	0.02383681
240	0x0a	0.034052584
241	0x18	0.08172621
242	0xfb	-0.017026292
243	0x36	0.18388397
244	0x00	0.0
245	0xdd	-0.11918405
246	0x39	0.19409974
247	0xf4	-0.040863104
248	0xf1	-0.05107888
249	0x03	0.010215776
250	0xce	-0.17026293
251	0xf2	-0.04767362
252	0x05	0.017026292
253	0x14	0.06810517
254	0xd9	-0.13280508
255	0xcd	-0.17366819

sequential_1/lstm_1/Read_2/ReadVariableOp1 f4 [896]
0	0x3cc5fdfd	0.024168963
1	0x3b5a7c34	0.003333819
2	0x3d7a16f2	0.06105704
3	0x3c2f78ed	0.010709983
4	0x3d7d6874	0.061867192
5	0x3df75730	0.120771766
6	0x3d8d0a5a	0.0688674
7	0xba1b4252	-0.0005922663
8	0x3cd9f62b	0.02660664
9	0x3ba28fcf	0.004960991
10	0x3d8ce039	0.068787046
11	0x3beb632f	0.0071834545
12	0x3db46489	0.08808238
13	0x3d9f8ac3	0.077901386
14	0x3d2f4ca3	0.042797696
15	0xbcb6b79b	-0.022304347
16	0x3cbb1ee5	0.02284188
17	0x3b73fe09	0.0037230274
18	0x3b3ea2fd	0.0029088848
19	0x3c6f7864	0.014616106
20	0x3d1c90b4	0.038223937
21	0x3cdc889a	0.026920605
22	0x3cfcbf95	0.030853072
23	0x3d1ddf3b	0.038542967
24	0xbc05a915	-0.008157988
25	0xbb4d318c	-0.003131005
26	0xbc411e88	-0.011787064
27	0x3d8ff21a	0.07028599
28	0x3b2505c2	0.0025180434
29	0x3ba3e8d2	0.0050021196
30	0x3d46f87d	0.04857682
31	0x3ce58b9c	0.028020673
32	0x3dccb6fd	0.0999584
33	0xbc941165	-0.0180747
34	0x3e9129ea	0.2835229
35	0x3d35cf7f	0.044387337
36	0xbb866690	-0.004101582
37	0xba72bbd2	-0.0009259555
38	0xbbc25a1a	-0.005931151
39	0x3c9c4f82	0.019080881
40	0x3cb3c216	0.021943133
41	0x3b93c7cb	0.004509901
42	0x3da597b6	0.08085577
43	0x3e34f79f	0.17672585
44	0x3db73548	0.089457095
45	0x3d6ee2ec	0.05832188
46	0x3cd73a86	0.026273023
47	0x3d9ce780	0.076613426
48	0xbca7b9bf	-0.020474313
49	0xbb6e1ce2	-0.0036333133
50	0x3d337c22	0.043819554
51	0xbc7cccd1	-0.015429691
52	0x3b39b92b	0.0028339128
53	0x3d2c60c6	0.042084478
54	0x3da4c08a	0.080445364
55	0x3d8da54d	0.06916294
56	0xbc3c64ae	-0.011498613
57	0x3d572091	0.052521292
58	0x3db32171	0.08746613
59	0x3c90c88b	0.017673751
60	0x3ca178a7	0.019710852
61	0x3c9f9a21	0.019482674
62	0x3d3407b1	0.043952648
63	0x3c151802	0.009099962
64	0x3b005e05	0.001958729
65	0x3dcaa024	0.09893826
66	0xbd58928b	-0.05287413
67	0x3cb85f76	0.022506457
68	0x3d080611	0.03320891
69	0x3e2222c5	0.15833576
70	0x3e18eb19	0.14933433
71	0x3d0d14d4	0.03444369
72	0x3d02e507	0.0319567
73	0x3db83943	0.08995297
74	0xb8f6a9a5	-0.00011761793
75	0xbc02ab3c	-0.007975396
76	0x3e387bd9	0.18015994
77	0x3d80a086	0.062806174
78	0x3e0be887	0.13662921
79	0x3b38f7ff	0.002822399
80	0x3c43f8cb	0.011961172
81	0x3e129d35	0.14317782
82	0x3d4df842	0.050285585
83	0x3c85597e	0.016278025
84	0x3d88653a	0.066599324
85	0x3b9a7ec5	0.004714819
86	0x3bea4382	0.007149161
87	0x3d1f0725	0.038825173
88	0x3e353268	0.1769501
89	0x3e23fd7b	0.16014664
90	0x3e19eb0c	0.1503107
91	0x3c13d8ef	0.009023889
92	0x3cc46eb6	0.023978572
93	0x3db3e0e3	0.08783128
94	0x3d7a0603	0.06104089
95	0x3d350031	0.044189636
96	0x3da9513d	0.08267448
97	0xbcb1ada2	-0.02168924
98	0xbc138bec	-0.009005528
99	0x3d4517f2	0.04811854
100	0x3cb29712	0.021800552
101	0x3bf458b2	0.0074568624
102	0x3d030689	0.031988654
103	0x3c3bb32d	0.011456293
104	0x3d0b1fe3	0.033965956
105	0x3d6667d4	0.056251362
106	0xbb87883d	-0.004136114
107	0xba8e0208	-0.0010834346
108	0x3dbfacff	0.09359168
109	0x3d4e2cea	0.050335802
110	0xbb5ca7ec	-0.0033669425
111	0x3e554fd5	0.20831235
112	0x3d9016e8	0.07035619
113	0x3bd83936	0.006598617
114	0x3d9ad225	0.07559613
115	0x3d56bc4f	0.05242568
116	0x3d215ea2	0.03939689
117	0xbd2b23e9	-0.041782293
118	0x3ac767b3	0.00152134
119	0x3db03bae	0.08605133
120	0xbcdb5f0a	-0.026778717
121	0x3d318a9d	0.043345083
122	0x3e6c36af	0.23067735
123	0x3d69be71	0.057066385
124	0x3d3e110f	0.046402987
125	0x3e61c7e3	0.22048907
126	0x3d18f71a	0.03734503
127	0x3e5d7fcb	0.2163078
128	0x3c9cc774	0.019138075
129	0x3d3b5f0b	0.045744937
130	0x3d099038	0.033584803
131	0xbc64cb13	-0.013964432
132	0x3aa01bfb	0.001221537
133	0x3c6e0151	0.014526681
134	0x3ca7950e	0.020456817
135	0x3c90d704	0.017680652
136	0xbbdbe7d1	-0.0067109843
137	0x3e025612	0.12728146
138	0xbcc771d3	-0.024346268
139	0x3d103caf	0.035214122
140	0x3d8a1865	0.06742934
141	0x3dea82a1	0.11450697
142	0x3cd847b1	0.026401373
143	0x3cd69515	0.026194135
144	0x3d121d77	0.03567263
145	0x3c81569d	0.01578837
146	0x3dc15b4c	0.094412416
147	0x3e28c2d7	0.16480576
148	0x3ca7f08c	0.020500444
149	0x3caed3db	0.021341255
150	0x3cb880c7	0.022522343
151	0x3d1597d8	0.036521763
152	0x3d24fb43	0.040278684
153	0x3d1563bb	0.036472064
154	0x3df78633	0.12086143
155	0x3d136879	0.035988305
156	0x3d3a72ec	0.045519754
157	0x3c1c3769	0.009534695
158	0x3e154447	0.14576827
159	0xbca2da73	-0.019879555
160	0x3cf0f65e	0.029414352
161	0x3c6133b3	0.013745236
162	0x3d5b8202	0.053590782
163	0x3d7c0e34	0.061536983
164	0x3cc82a61	0.02443427
165	0x3d2bbf67	0.041930582
166	0x3d3b961a	0.045797445
167	0x3d9cd138	0.07657093
168	0xbbd92211	-0.0066263755
169	0x3d797eee	0.060912065
170	0x3d2b97e5	0.041892905
171	0xbba7b399	-0.0051178453
172	0x3d97b243	0.074070476
173	0x3d7f36c0	0.062308073
174	0x3b72e54c	0.003706294
175	0x3d739847	0.059471395
176	0x3ce55498	0.027994439
177	0xbcb4e513	-0.022081887
178	0xbc69af7d	-0.014263031
179	0xbc8dd680	-0.017314196
180	0x3cdb9284	0.026803263
181	0x3e2077aa	0.15670648
182	0x3d33265a	0.043737747
183	0x3c3cda58	0.011526667
184	0x3cfc62e5	0.030808875
185	0x3d4fc917	0.050728884
186	0x3d2cdae0	0.042200923
187	0xbb63e691	-0.003477488
188	0x3e08f661	0.13375236
189	0xbd0c7a74	-0.034296468
190	0x3d2e1e68	0.042509466
191	0x3d0e872c	0.03479688
192	0x3cd6cdfd	0.02622127
193	0xbcc40171	-0.023926469
194	0x3d59349d	0.05302869
195	0x3d59296a	0.05301801
196	0x3c731684	0.014836911
197	0x3c2b72d6	0.010464391
198	0x3cc82d2f	0.024435608
199	0x3da6f4fe	0.08152197
200	0x3d114173	0.035462808
201	0x3cd8fa87	0.026486648
202	0x3d227f6c	0.0396723
203	0x3d309fc3	0.04312111
204	0x3cada80d	0.021198297
205	0x3c764928	0.01503209
206	0xbc8d1ceb	-0.017225703
207	0x3d0c2b0c	0.03422074
208	0x3ded6d64	0.1159313
209	0x3b756f6c	0.0037450446
210	0x3cba0b38	0.022710428
211	0x3b631b00	0.0034653544
212	0xbc8967dd	-0.016773159
213	0x3c84e997	0.016224666
214	0x3dc2074f	0.0947405
215	0x3ddaa6ce	0.10676347
216	0x3d6d87df	0.057990905
217	0x3e338289	0.17530264
218	0x3e8fff81	0.28124622
219	0x3cdf8cef	0.027288882
220	0x3d16fd00	0.036862373
221	0xbce05768	-0.027385429
222	0x3cc464ef	0.02397391
223	0x3d3987e6	0.04529562
224	0x3f82be58	1.0214338
225	0x3f79d9d6	0.97598016
226	0x3f8263cb	1.0186704
227	0x3f712bf3	0.94207686
228	0x3f784984	0.96987176
229	0x3f847bda	1.0350296
230	0x3f809d48	1.0047998
231	0x3f79cca2	0.9757787
232	0x3f72efdc	0.94897246
233	0x3f80c5d5	1.0060374
234	0x3f74f358	0.95683813
235	0x3f83a4ff	1.0284728
236	0x3f7035e7	0.9383225
237	0x3f728b8a	0.9474417
238	0x3f759ace	0.9593934
239	0x3f7335de	0.9500407
240	0x3f79d20b	0.97586125
241	0x3f7b0843	0.9805948
242	0x3f70835f	0.93950456
243	0x3f7c70d4	0.9860966
244	0x3f753904	0.95790124
245	0x3f7171d0	0.9431429
246	0x3f804b76	1.0023029
247	0x3f80fa00	1.0076294
248	0x3f770d86	0.9650501
249	0x3f7dfb39	0.9921146
250	0x3f7dd5f1	0.99154574
251	0x3f77ae7f	0.96750635
252	0x3f808927	1.0041856
253	0x3f70c5d6	0.94051874
254	0x3f85d95f	1.0456961
255	0x3f7fbbb1	0.9989577

while/MatMul_11 i1 [896, 224] scale=0.0040388643 zero_point=0
0	0x27	0.1575157
1	0xe8	-0.09693274
2	0xf5	-0.044427507
3	0xd4	-0.17771003
4	0xf0	-0.06462183
5	0xfc	-0.016155457
6	0x25	0.14943798
7	0xe9	-0.092893876
8	0x0f	0.060582966
9	0x06	0.024233185
10	0x05	0.020194322
11	0x09	0.036349777
12	0x0a	0.040388644
13	0x1d	0.11712706
14	0xf1	-0.060582966
15	0x03	0.012116592
16	0x16	0.08885501
17	0x25	0.14943798
18	0x05	0.020194322
19	0x0a	0.040388644
20	0xed	-0.076738425
21	0xf3	-0.052505236
22	0x16	0.08885501
23	0x09	0.036349777
24	0xce	-0.20194322
25	0xea	-0.08885501
26	0x0d	0.052505236
27	0xe0	-0.12924366
28	0xfc	-0.016155457
29	0xf7	-0.036349777
30	0x06	0.024233185
31	0x1f	0.12520479
32	0x08	0.032310914
33	0xff	-0.0040388643
34	0x12	0.072699554
35	0x1b	0.109049335
36	0xd2	-0.18578775
37	0x0d	0.052505236
38	0x20	0.12924366
39	0x0c	0.04846637
40	0x1f	0.12520479
41	0xef	-0.06866069
42	0xf6	-0.040388644
43	0x00	0.0
44	0x19	0.10097161
45	0x05	0.020194322
46	0x01	0.0040388643
47	0xe2	-0.12116593
48	0x08	0.032310914
49	0x0f	0.060582966
50	0x12	0.072699554
51	0xd8	-0.16155457
52	0xfa	-0.024233185
53	0x0b	0.044427507
54	0x12	0.072699554
55	0x2a	0.1696323
56	0x25	0.14943798
57	0xf5	-0.044427507
58	0xc6	-0.23425412
59	0x06	0.024233185
60	0xf0	-0.06462183
61	0xe6	-0.10501047
62	0xe6	-0.10501047
63	0x12	0.072699554
64	0x0d	0.052505236
65	0xfc	-0.016155457
66	0xe4	-0.1130882
67	0x10	0.06462183
68	0xf3	-0.052505236
69	0xd7	-0.16559343
70	0xda	-0.15347685
71	0x0c	0.04846637
72	0x01	0.0040388643
73	0xe8	-0.09693274
74	0x19	0.10097161
75	0x31	0.19790435
76	0xee	-0.072699554
77	0xed	-0.076738425
78	0x08	0.032310914
79	0x0c	0.04846637
80	0xde	-0.13732138
81	0xfa	-0.024233185
82	0x08	0.032310914
83	0x0f	0.060582966
84	0xdd	-0.14136025
85	0x04	0.016155457
86	0xf4	-0.04846637
87	0x19	0.10097161
88	0x1f	0.12520479
89	0xfe	-0.008077729
90	0xf5	-0.044427507
91	0xfd	-0.012116592
92	0x22	0.13732138
93	0xe6	-0.10501047
94	0x33	0.20598207
95	0xff	-0.0040388643
96	0xf1	-0.060582966
97	0x07	0.02827205
98	0xee	-0.072699554
99	0x02	0.008077729
100	0x38	0.2261764
101	0x11	0.06866069
102	0x3a	0.23425412
103	0x23	0.14136025
104	0xfe	-0.008077729
105	0x07	0.02827205
106	0xea	-0.08885501
107	0x14	0.08077729
108	0x1b	0.109049335
109	0xe1	-0.12520479
110	0x09	0.036349777
111	0xe8	-0.09693274
112	0x11	0.06866069
113	0xf5	-0.044427507
114	0xe9	-0.092893876
115	0xf2	-0.0565441
116	0x11	0.06866069
117	0xe8	-0.09693274
118	0xe9	-0.092893876
119	0x0e	0.0565441
120	0x20	0.12924366
121	0xf3	-0.052505236
122	0xfd	-0.012116592
123	0xf0	-0.06462183
124	0xeb	-0.08481615
125	0xdf	-0.13328253
126	0xd4	-0.17771003
127	0x1f	0.12520479
128	0x11	0.06866069
129	0xd2	-0.18578775
130	0x29	0.16559343
131	0x25	0.14943798
132	0x1f	0.12520479
133	0xf1	-0.060582966
134	0x11	0.06866069
135	0x18	0.09693274
136	0x10	0.06462183
137	0xe5	-0.109049335
138	0x14	0.08077729
139	0x1d	0.11712706
140	0x13	0.076738425
141	0xef	-0.06866069
142	0x0b	0.044427507
143	0x00	0.0
144	0x2a	0.1696323
145	0xfb	-0.020194322
146	0x24	0.14539911
147	0x11	0.06866069
148	0xf8	-0.032310914
149	0xbb	-0.27868164
150	0xe6	-0.10501047
151	0x06	0.024233185
152	0xf5	-0.044427507
153	0x0b	0.044427507
154	0xf1	-0.060582966
155	0xf8	-0.032310914
156	0xec	-0.08077729
157	0x07	0.02827205
158	0x13	0.076738425
159	0xfe	-0.008077729
160	0x12	0.072699554
161	0x37	0.22213754
162	0x15	0.08481615
163	0xf4	-0.04846637
164	0xf7	-0.036349777
165	0xe2	-0.12116593
166	0x1d	0.11712706
167	0x25	0.14943798
168	0xc8	-0.2261764
169	0xeb	-0.08481615
170	0xd6	-0.1696323
171	0xf9	-0.02827205
172	0xf0	-0.06462183
173	0x03	0.012116592
174	0x08	0.032310914
175	0xfe	-0.008077729
176	0x13	0.076738425
177	0xec	-0.08077729
178	0xd4	-0.17771003
179	0x3a	0.23425412
180	0xdc	-0.14539911
181	0xf6	-0.040388644
182	0x04	0.016155457
183	0xf2	-0.0565441
184	0xf5	-0.044427507
185	0x05	0.020194322
186	0xe2	-0.12116593
187	0x08	0.032310914
188	0xf2	-0.0565441
189	0x01	0.0040388643
190	0xf9	-0.02827205
191	0xeb	-0.08481615
192	0x19	0.10097161
193	0xfc	-0.016155457
194	0x03	0.012116592
195	0x27	0.1575157
196	0xda	-0.15347685
197	0x0c	0.04846637
198	0xeb	-0.08481615
199	0x0e	0.0565441
200	0xef	-0.06866069
201	0xe3	-0.11712706
202	0xde	-0.13732138
203	0x0f	0.060582966
204	0xfe	-0.008077729
205	0xef	-0.06866069
206	0xfc	-0.016155457
207	0xf2	-0.0565441
208	0x04	0.016155457
209	0x05	0.020194322
210	0x04	0.016155457
211	0x10	0.06462183
212	0x13	0.076738425
213	0xfd	-0.012116592
214	0xed	-0.076738425
215	0x38	0.2261764
216	0x0c	0.04846637
217	0xf4	-0.04846637
218	0xef	-0.06866069
219	0xe8	-0.09693274
220	0xef	-0.06866069
221	0xf0	-0.06462183
222	0xfa	-0.024233185
223	0x04	0.016155457
224	0x1b	0.109049335
225	0x00	0.0
226	0x08	0.032310914
227	0x12	0.072699554
228	0x0c	0.04846637
229	0xf2	-0.0565441
230	0x27	0.1575157
231	0x01	0.0040388643
232	0xf6	-0.040388644
233	0xdf	-0.13328253
234	0x08	0.032310914
235	0x16	0.08885501
236	0xf1	-0.060582966
237	0xf6	-0.040388644
238	0x08	0.032310914
239	0xf2	-0.0565441
240	0xf5	-0.044427507
241	0x10	0.06462183
242	0x24	0.14539911
243	0x13	0.076738425
244	0xf5	-0.044427507
245	0xfd	-0.012116592
246	0xf3	-0.052505236
247	0x18	0.09693274
248	0xf5	-0.044427507
249	0xda	-0.15347685
250	0xfb	-0.020194322
251	0x1e	0.12116593
252	0x01	0.0040388643
253	0x02	0.008077729
254	0xff	-0.0040388643
255	0xfb	-0.020194322

while/MatMul i1 [896, 7] scale=0.004629396 zero_point=0
0	0x05	0.02314698
1	0xd9	-0.18054643
2	0xfc	-0.018517584
3	0xf2	-0.06481154
4	0x13	0.08795852
5	0x0f	0.06944094
6	0x06	0.027776375
7	0x1b	0.12499369
8	0xd0	-0.222211
9	0xff	-0.004629396
10	0x1b	0.12499369
11	0xdc	-0.16665825
12	0xee	-0.083329126
13	0x1a	0.12036429
14	0x1b	0.12499369
15	0xda	-0.17591704
16	0xf8	-0.037035167
17	0x2d	0.20832282
18	0x2c	0.20369342
19	0x31	0.2268404
20	0x0d	0.060182147
21	0x02	0.009258792
22	0x0e	0.06481154
23	0x05	0.02314698
24	0xf5	-0.050923355
25	0xea	-0.10184671
26	0x01	0.004629396
27	0xf8	-0.037035167
28	0x02	0.009258792
29	0x0a	0.04629396
30	0xfe	-0.009258792
31	0x14	0.09258792
32	0x0d	0.060182147
33	0xf1	-0.06944094
34	0x07	0.03240577
35	0xfb	-0.02314698
36	0xf0	-0.074070334
37	0x11	0.07869973
38	0xf7	-0.041664563
39	0x1d	0.13425249
40	0xeb	-0.097217314
41	0xfc	-0.018517584
42	0xde	-0.15739946
43	0x2c	0.20369342
44	0x05	0.02314698
45	0xe8	-0.1111055
46	0x3b	0.27313435
47	0xfe	-0.009258792
48	0xe9	-0.106476106
49	0x1a	0.12036429
50	0xf0	-0.074070334
51	0xf3	-0.060182147
52	0x1a	0.12036429
53	0xed	-0.08795852
54	0x1e	0.13888188
55	0x07	0.03240577
56	0x11	0.07869973
57	0xb7	-0.3379459
58	0x0b	0.050923355
59	0x13	0.08795852
60	0x08	0.037035167
61	0xd8	-0.18517584
62	0xe0	-0.14814067
63	0xea	-0.10184671
64	0xdd	-0.16202885
65	0x12	0.083329126
66	0xff	-0.004629396
67	0xe5	-0.12499369
68	0x04	0.018517584
69	0xea	-0.10184671
70	0x06	0.027776375
71	0xc8	-0.25924617
72	0x09	0.041664563
73	0x17	0.106476106
74	0xd1	-0.2175816
75	0x1e	0.13888188
76	0xf8	-0.037035167
77	0x10	0.074070334
78	0xec	-0.09258792
79	0x07	0.03240577
80	0x0e	0.06481154
81	0xfb	-0.02314698
82	0x48	0.3333165
83	0xfd	-0.013888188
84	0x1b	0.12499369
85	0xfa	-0.027776375
86	0x0a	0.04629396
87	0x1b	0.12499369
88	0xd4	-0.20369342
89	0xfd	-0.013888188
90	0x0d	0.060182147
91	0xfe	-0.009258792
92	0xf9	-0.03240577
93	0x0d	0.060182147
94	0x05	0.02314698
95	0xda	-0.17591704
96	0xd3	-0.20832282
97	0xe5	-0.12499369
98	0xff	-0.004629396
99	0x12	0.083329126
100	0x02	0.009258792
101	0x07	0.03240577
102	0xef	-0.07869973
103	0xcf	-0.2268404
104	0xff	-0.004629396
105	0x11	0.07869973
106	0xea	-0.10184671
107	0xf2	-0.06481154
108	0x07	0.03240577
109	0x03	0.013888188
110	0xf1	-0.06944094
111	0xf7	-0.041664563
112	0x00	0.0
113	0x25	0.17128766
114	0x0f	0.06944094
115	0x00	0.0
116	0x1e	0.13888188
117	0x05	0.02314698
118	0x0e	0.06481154
119	0xf7	-0.041664563
120	0x1e	0.13888188
121	0xff	-0.004629396
122	0x06	0.027776375
123	0x15	0.097217314
124	0xfa	-0.027776375
125	0x0f	0.06944094
126	0x01	0.004629396
127	0x0b	0.050923355
128	0xf5	-0.050923355
129	0x07	0.03240577
130	0x23	0.16202885
131	0x31	0.2268404
132	0xfb	-0.02314698
133	0xff	-0.004629396
134	0xfc	-0.018517584
135	0xf1	-0.06944094
136	0xfc	-0.018517584
137	0x00	0.0
138	0xe2	-0.13888188
139	0x00	0.0
140	0x01	0.004629396
141	0x21	0.15277007
142	0x03	0.013888188
143	0x04	0.018517584
144	0x18	0.1111055
145	0xfc	-0.018517584
146	0x35	0.24535799
147	0xe8	-0.1111055
148	0xd3	-0.20832282
149	0x1b	0.12499369
150	0x00	0.0
151	0xbb	-0.31942832
152	0xc3	-0.28239316
153	0xf6	-0.04629396
154	0x3a	0.26850498
155	0xf7	-0.041664563
156	0x10	0.074070334
157	0x3b	0.27313435
158	0x46	0.3240577
159	0x01	0.004629396
160	0xf4	-0.05555275
161	0xe0	-0.14814067
162	0xd7	-0.18980524
163	0x11	0.07869973
164	0xe8	-0.1111055
165	0x01	0.004629396
166	0xf2	-0.06481154
167	0x09	0.041664563
168	0x01	0.004629396
169	0x0b	0.050923355
170	0xee	-0.083329126
171	0xf3	-0.060182147
172	0x00	0.0
173	0x00	0.0
174	0x00	0.0
175	0xd6	-0.19443463
176	0xed	-0.08795852
177	0x05	0.02314698
178	0xcc	-0.24072859
179	0xe9	-0.106476106
180	0xf1	-0.06944094
181	0xef	-0.07869973
182	0x0c	0.05555275
183	0x17	0.106476106
184	0xf6	-0.04629396
185	0xf2	-0.06481154
186	0x46	0.3240577
187	0xcb	-0.24535799
188	0xf8	-0.037035167
189	0x1c	0.12962309
190	0x16	0.10184671
191	0x1a	0.12036429
192	0x20	0.14814067
193	0x12	0.083329126
194	0x0a	0.04629396
195	0x1b	0.12499369
196	0x33	0.23609918
197	0x0c	0.05555275
198	0x02	0.009258792
199	0x2f	0.2175816
200	0x2b	0.19906402
201	0x17	0.106476106
202	0x2f	0.2175816
203	0xfd	-0.013888188
204	0xe2	-0.13888188
205	0xe9	-0.106476106
206	0xf1	-0.06944094
207	0xf4	-0.05555275
208	0xb7	-0.3379459
209	0x07	0.03240577
210	0xec	-0.09258792
211	0x06	0.027776375
212	0x15	0.097217314
213	0xe9	-0.106476106
214	0xf0	-0.074070334
215	0x04	0.018517584
216	0xf4	-0.05555275
217	0xe8	-0.1111055
218	0xbe	-0.30554014
219	0x0d	0.060182147
220	0xef	-0.07869973
221	0xe5	-0.12499369
222	0xf3	-0.060182147
223	0xe6	-0.12036429
224	0x19	0.1157349
225	0xfa	-0.027776375
226	0x13	0.08795852
227	0xff	-0.004629396
228	0xfb	-0.02314698
229	0x16	0.10184671
230	0x11	0.07869973
231	0x17	0.106476106
232	0xdf	-0.15277007
233	0xeb	-0.097217314
234	0x1f	0.14351127
235	0xd6	-0.19443463
236	0xee	-0.083329126
237	0x02	0.009258792
238	0xfa	-0.027776375
239	0x1d	0.13425249
240	0x38	0.25924617
241	0xf8	-0.037035167
242	0xf6	-0.04629396
243	0xf5	-0.050923355
244	0xec	-0.09258792
245	0x0c	0.05555275
246	0xeb	-0.097217314
247	0xfb	-0.02314698
248	0x15	0.097217314
249	0x16	0.10184671
250	0xfa	-0.027776375
251	0xec	-0.09258792
252	0x01	0.004629396
253	0x15	0.097217314
254	0xef	-0.07869973
255	0x17	0.106476106
