src/edgeDevice/models/model.tflite (tflite, 897076 bytes, 8 tensors)

sequential_1/lstm_2/Read_2/ReadVariableOp f4 [896]
0	0x3c03af25	0.008037363
1	0xbc3394ac	-0.010960739
2	0x3cd18a28	0.025578573
3	0xbb16eb76	-0.002302853
4	0x3d240211	0.040041033
5	0xbca996c0	-0.020701766
6	0x3cb78177	0.0224006
7	0x3d07d925	0.03316607
8	0x3d93125a	0.07181235
9	0x3d32d146	0.04365661
10	0x3e39d65e	0.18148181
11	0x3d2bf4a0	0.04198134
12	0x3d6827f7	0.05667874
13	0x3bda4806	0.006661418
14	0xb9688c31	-0.0002217747
15	0x3dc4ba61	0.096058615
16	0xbc87ba43	-0.016568309
17	0xba10ab7b	-0.00055187166
18	0x3d56c030	0.052429378
19	0xbbc72b8a	-0.0060781883
20	0x3cd0c55c	0.025484733
21	0x3c9cf9e8	0.019162133
22	0x3c9480f6	0.0181279
23	0x3d8341de	0.064090475
24	0x3c602458	0.01368054
25	0x3c274b8a	0.010210881
26	0xbc3957da	-0.011312449
27	0x3dda63c5	0.10663561
28	0xbcd68f07	-0.026191248
29	0x3d151caa	0.03640429
30	0x3d4ce06b	0.05001871
31	0x3d35bd25	0.044369835
32	0xbc3dd74b	-0.011586974
33	0x3d6892b7	0.056780543
34	0x3c1fc8b5	0.009752442
35	0x3c94795c	0.018124275
36	0x3dc4ab0e	0.096029386
37	0x3d7f7cea	0.062374987
38	0xbc57bb30	-0.013167188
39	0x3d583998	0.0527893
40	0x3c85d84f	0.016338496
41	0x3d591350	0.052996933
42	0xbcafa07e	-0.021438833
43	0xbbc1e365	-0.005917
44	0x3d4b8c17	0.049694147
45	0x3c90e4d5	0.01768724
46	0x3c4e7821	0.012601883
47	0x3d92f729	0.07176048
48	0x3c13b621	0.009015591
49	0x3cce7780	0.025203466
50	0x3cec0737	0.028812034
51	0xbb8176e8	-0.0039509423
52	0x3bb906e7	0.005646575
53	0x3c880a22	0.016606394
54	0x3d090ca2	0.033459313
55	0x3c48a003	0.012245181
56	0x3cd40802	0.025882725
57	0x3d900caa	0.070336655
58	0x3d4d5f7c	0.05013989
59	0x3caf83fb	0.021425238
60	0x3cb10991	0.021611007
61	0x3b408763	0.0029377572
62	0x3cd6ca0a	0.026219387
63	0x3dbd486d	0.0924233
64	0x3c7660b5	0.015037705
65	0x3d819f5e	0.06329225
66	0x3cc2d900	0.023785114
67	0x3cb8eee2	0.022574846
68	0x3cead7cb	0.028667351
69	0x3d2981c8	0.041383535
70	0x3c7411a8	0.014896788
71	0x3d66c9e5	0.056344885
72	0x3d1dc08b	0.0385137
73	0xbb9c30c1	-0.004766554
74	0xbc6b1e95	-0.014350553
75	0x3d99e348	0.075140536
76	0x3df36732	0.11884917
77	0x3b82839d	0.0039829747
78	0x3c5565e2	0.013024779
79	0x3db1e329	0.086859055
80	0xbc975ac4	-0.018475898
81	0x3cc06479	0.02348541
82	0x3cee409b	0.02908354
83	0x3db98a89	0.090596266
84	0x3c909adf	0.017651973
85	0x3d20b1c0	0.039232016
86	0x3dbda1b4	0.09259358
87	0x3db880a0	0.09008908
88	0xbc97c5bc	-0.018526904
89	0x3d4b8cf8	0.049694985
90	0x3d8c7b99	0.06859512
91	0xbc36f732	-0.011167334
92	0x3e04ce2c	0.12969273
93	0x3c8e4167	0.01736517
94	0xbc4472d5	-0.011990269
95	0x3b836ffe	0.0040111532
96	0x39b4cc6d	0.00034484584
97	0x3dd82315	0.10553566
98	0x3c060773	0.008180487
99	0x3bf30345	0.0074161612
100	0x3d0c65bd	0.034276713
101	0x3c036a31	0.0080209235
102	0x3bb160f0	0.005413167
103	0x3d1febee	0.03904336
104	0x3d8b30ae	0.06796394
105	0x3bf575dd	0.007490857
106	0x3c0928be	0.00837153
107	0x3c0334c0	0.008008182
108	0x3b6d6d34	0.003622842
109	0xbc34b245	-0.011028831
110	0x3d85e60b	0.06538018
111	0x3d02d3bf	0.031940218
112	0x3d9484b4	0.072518736
113	0x3db4e98a	0.088336065
114	0x3c4ac820	0.012376815
115	0xbb4cf6b7	-0.0031274983
116	0x3ca34089	0.019928234
117	0x3e6c4080	0.2307148
118	0x3d820745	0.06349043
119	0x3d7f7075	0.062363107
120	0x3ce06dfd	0.027396196
121	0x3c90996e	0.017651286
122	0x3c819232	0.015816782
123	0x3d110fa9	0.035415325
124	0xbc829887	-0.015941871
125	0x3ca8bc6e	0.020597663
126	0x3cb87ca1	0.022520365
127	0x3e2320f0	0.15930533
128	0xbc4ba7ba	-0.012430126
129	0xbbc8bb02	-0.0061258087
130	0x3c80c52b	0.015719017
131	0x3cb93e3c	0.022612683
132	0xbbebc1da	-0.0071947398
133	0x3ccd604b	0.02507033
134	0x3daa3615	0.083110966
135	0x3d1d99d2	0.038476773
136	0xbc5a623f	-0.013329088
137	0x3d253761	0.040336017
138	0xbbc9c5d6	-0.006157617
139	0xbbcffeaf	-0.0063474993
140	0xbc200b05	-0.009768252
141	0x3d74cd05	0.059765834
142	0x3ce6bf9e	0.028167542
143	0x3b3babdd	0.0028636374
144	0x3bc7b419	0.0060944674
145	0xbcba059b	-0.022707751
146	0x3bba5e3e	0.005687504
147	0x3ccb5ee2	0.024825517
148	0x3bff2872	0.007786804
149	0xbc9113ae	-0.01770958
150	0x3d953152	0.07284798
151	0x3c6d3793	0.014478582
152	0x3b0dcc12	0.0021636528
153	0x3cbea9cc	0.023274325
154	0xbc7bef8f	-0.015376939
155	0x3d17895f	0.03699624
156	0x3a4a1434	0.0007708699
157	0x3ca1ac65	0.019735524
158	0x3d4f07cc	0.050544545
159	0x3bc3c099	0.005973887
160	0x3bfec942	0.0077754566
161	0x3bc4d320	0.0060066134
162	0x3d79ceca	0.060988225
163	0x3c059938	0.008154206
164	0x3c02c575	0.007981648
165	0x3c7790a3	0.015110168
166	0x3cdbb288	0.026818529
167	0x3d273bf4	0.04082866
168	0x3cdf0518	0.027224109
169	0x3d7395a7	0.05946889
170	0x3d5389be	0.051645033
171	0x3dac888e	0.08424483
172	0x3d19bc57	0.03753313
173	0x3cb38383	0.021913296
174	0x3da3be93	0.079953335
175	0x3c595f62	0.01326737
176	0x3c95ab2a	0.018270094
177	0x3bfdc336	0.007744218
178	0x3c68965e	0.014196007
179	0xbb37d7f7	-0.002805231
180	0x3c7f5c37	0.015585951
181	0x3c551657	0.0130058145
182	0xbbc2fe64	-0.005950736
183	0x3d2c438b	0.0420566
184	0xbcbeb666	-0.023280334
185	0x3ba433d5	0.0050110617
186	0x3d4ede79	0.050505135
187	0xbc2d5534	-0.010579396
188	0x3c0fa282	0.008766772
189	0x3c72774a	0.014798949
190	0x3d469f78	0.048491925
191	0x3d896e9d	0.06710551
192	0x3e8e378b	0.2777675
193	0x3b71dc2f	0.0036904921
194	0x3d0ba25d	0.03409039
195	0x3cfbf6f7	0.03075741
196	0x3d0dff47	0.03466728
197	0x3c08adfb	0.008342261
198	0xbae3facc	-0.0017393469
199	0x3d555db5	0.05209132
200	0x3cd0ece0	0.025503576
201	0x3d89c206	0.0672646
202	0x3dae8ada	0.085225776
203	0x3d0263f0	0.03183359
204	0x3d25f4d6	0.040516697
205	0x3c30d190	0.010792151
206	0x3c2873fa	0.010281557
207	0x3d76f195	0.060288984
208	0x3c78c0a4	0.015182648
209	0x3d962fbf	0.073333256
210	0x3cd3b500	0.025843143
211	0x3d389d38	0.04507181
212	0x3d5d42e6	0.054018877
213	0xba2cdf79	-0.00065945793
214	0x3cf5c4f4	0.030001141
215	0x3dc1be1f	0.09460091
216	0xbc01b734	-0.007917214
217	0xbb69a23a	-0.0035649673
218	0x3bd412ee	0.006471983
219	0x3bd016c6	0.006350371
220	0x3d144129	0.036194954
221	0x3d16bb5e	0.03679978
222	0xbc292841	-0.010324539
223	0x3ccca02d	0.024978722
224	0x3f7c59be	0.98574436
225	0x3f7bd975	0.9837869
226	0x3f7e2b7a	0.9928509
227	0x3f803039	1.0014716
228	0x3f850d1a	1.0394623
229	0x3f7a90a0	0.9787693
230	0x3f74df73	0.95653456
231	0x3f7c2698	0.9849639
232	0x3f732a05	0.9498599
233	0x3f7ff289	0.99979454
234	0x3f7fbf21	0.99901015
235	0x3f7ced58	0.9879966
236	0x3f7f1e26	0.9965538
237	0x3f76a339	0.9634281
238	0x3f7fc687	0.99912304
239	0x3f8176b1	1.0114347
240	0x3f7e6e34	0.99386907
241	0x3f7d64ec	0.9898212
242	0x3f785d03	0.97016925
243	0x3f804dbb	1.0023721
244	0x3f7e71bf	0.9939231
245	0x3f8198df	1.0124778
246	0x3f7de429	0.9917627
247	0x3f7a7d40	0.97847366
248	0x3f80064e	1.0001924
249	0x3f817845	1.0114828
250	0x3f7d7ef1	0.9902182
251	0x3f6fde42	0.93698514
252	0x3f7a8d86	0.978722
253	0x3f80185a	1.0007432
254	0x3f7f172e	0.99644744
255	0x3f80ced9	1.0063125

sequential_1/dense_3/BiasAdd/ReadVariableOp f4 [42]
0	0x3cf69318	0.030099437
1	0x3cad45aa	0.021151382
2	0x3cf9f538	0.030512437
3	0x3d07f64a	0.033193864
4	0xbc2e91d9	-0.01065489
5	0xbbfc9bce	-0.007709003
6	0x3d1b4171	0.037904207
7	0x3c145a28	0.009054698
8	0x3bcf2f51	0.006322779
9	0x3ce6d52c	0.02817782
10	0x3cc1d317	0.023660226
11	0xbbdc14d6	-0.006716351
12	0x3b696e0f	0.0035618579
13	0x3d28dfec	0.041229174
14	0x3c73ac8c	0.014872681
15	0x3cc3709b	0.023857405
16	0x3d179baf	0.037013706
17	0x3c9d3d4a	0.019194264
18	0xbca63ec7	-0.020293606
19	0xbc28270f	-0.010263219
20	0x3c69a979	0.014261597
21	0xbc1e929f	-0.009678512
22	0x3c0cd05d	0.0085946
23	0x3cf103e1	0.029420795
24	0x3ca7d120	0.02048546
25	0xbad3ec55	-0.0016168455
26	0xbbd03acb	-0.006354665
27	0x3d34bb7b	0.044124108
28	0x3d229031	0.039688293
29	0x3cdc7b1e	0.026914176
30	0x3d1e22a9	0.038607273
31	0x3c1c338b	0.009533773
32	0xbaf3e5aa	-0.0018607874
33	0xbbc7e3a4	-0.006100135
34	0x3ce97729	0.028499203
35	0x3d403973	0.046929788
36	0x3c20d01a	0.00981524
37	0x3d08ad75	0.033368547
38	0x3c98ff40	0.0186764
39	0x3a03fee9	0.0005035238
40	0x3cb74b48	0.022374764
41	0x3d32bb64	0.04363574

sequential_1/dense_2/BiasAdd/ReadVariableOp f4 [48]
0	0xbcec6264	-0.02885551
1	0xbc84f691	-0.016230853
2	0x3cb3e3dd	0.02195924
3	0xbb61dc07	-0.0034463422
4	0xbc81c3d3	-0.015840447
5	0x3c678ba8	0.014132418
6	0xbb94edb8	-0.00454494
7	0xbc8bd49b	-0.017069152
8	0xba3944f4	-0.0007067465
9	0xbc417a94	-0.01180901
10	0x3c339b16	0.010962268
11	0x3c9a010c	0.018799327
12	0x3c7511db	0.01495787
13	0x3c926063	0.017868226
14	0xbc8b0cba	-0.016973842
15	0xbcde8483	-0.027162796
16	0xbc4a7b9e	-0.012358574
17	0xbcd2231d	-0.025651509
18	0xbc33625b	-0.010948743
19	0x3c98a8b0	0.018635124
20	0x3c820721	0.01587254
21	0x3ce2c406	0.027681362
22	0x3ccd2a89	0.025044696
23	0xbc8180ea	-0.015808541
24	0x3a97d5bf	0.0011584087
25	0x3c9410a1	0.018074336
26	0x3c9bb83c	0.019008748
27	0x3cbda0f1	0.023148032
28	0x3c01939c	0.007908728
29	0x3c6d10c4	0.014469329
30	0x3cb2bfe3	0.021820014
31	0xbca7d04b	-0.020485064
32	0xbbd90e80	-0.006624043
33	0xbcd72fdf	-0.026267944
34	0x3b3aa285	0.0028478217
35	0xbc0b02d0	-0.008484557
36	0x3d003561	0.031300906
37	0xbc54c1a0	-0.012985617
38	0xbc6f4540	-0.014603913
39	0x3cbd2e14	0.02309326
40	0xbc927b03	-0.017880922
41	0x3cd81d7f	0.026381252
42	0xbc6dcf4e	-0.014514757
43	0x3cabdb5d	0.020978624
44	0x3aa16eea	0.001231638
45	0x3c61aa52	0.013773518
46	0x3c37450a	0.011185894
47	0xbc015a82	-0.007895114

sequential_1/dense_2/MatMul f4 [48, 224]
0	0xbdb787db	-0.08961459
1	0x3c0fba84	0.008772496
2	0x3e020469	0.12696995
3	0x3dfb6372	0.12274827
4	0xbd943edb	-0.07238551
5	0xbd23ff0b	-0.04003815
6	0xbd615ae3	-0.055018317
7	0xbd9468dc	-0.07246563
8	0x3e08a358	0.1334356
9	0x3d84e242	0.06488468
10	0x3dd43caf	0.10363137
11	0xbdd0dfc4	-0.1019893
12	0xbcb1eaba	-0.021718372
13	0xbd0369f5	-0.03208347
14	0x3d3bd283	0.045855056
15	0x3e0e468c	0.13894099
16	0xbe15515f	-0.14581822
17	0xbda7778c	-0.08177099
18	0xbce58305	-0.028016577
19	0xbdd5ecd6	-0.104455635
20	0x3d1fe5e3	0.039037596
21	0xbe238dc7	-0.15972053
22	0x3d3381b6	0.043824874
23	0x3ca64422	0.02029616
24	0xbd66e57a	-0.05637119
25	0x3dcb49db	0.09926196
26	0x3d718146	0.058961175
27	0x3e0da45e	0.13832232
28	0x3d093967	0.03350201
29	0x3dae31df	0.08505606
30	0xbdf8d83b	-0.12150618
31	0x3d9ebb37	0.07750552
32	0x3d3515ac	0.04421012
33	0xbdc01479	-0.09378905
34	0x3dcfcfd2	0.101470605
35	0xbcd46fff	-0.02593231
36	0x3db12247	0.08649116
37	0x3c8ec566	0.017428111
38	0xbb6dc0b1	-0.0036278183
39	0x3dbaac18	0.091148555
40	0x3d73fd63	0.05956782
41	0x3dfbb9be	0.12291287
42	0xbd0c9102	-0.034317978
43	0x3d26e100	0.04074192
44	0xbcf8610f	-0.030319719
45	0x3d1a2585	0.037633438
46	0x3e028869	0.12747349
47	0x3d60beb3	0.054869365
48	0xbd9db261	-0.07700039
49	0xbd7cf547	-0.061757352
50	0xbda037bb	-0.0782313
51	0x3d549f57	0.05190977
52	0xbd4e5b87	-0.050380256
53	0xbdc93ddd	-0.098262526
54	0xbc18461d	-0.00929406
55	0xbc007896	-0.00784125
56	0x3dcebc3e	0.10094498
57	0x3da87895	0.08226124
58	0xbe1d49e8	-0.15360224
59	0xbda02ab5	-0.07820646
60	0xbe1186cf	-0.14211582
61	0xbe21817d	-0.15772052
62	0xbc6e2923	-0.014536175
63	0x3e0728fa	0.13199225
64	0x3e031935	0.12802584
65	0x3d8959ba	0.06706567
66	0xbdb6c2ed	-0.08923898
67	0x3cb00100	0.021484852
68	0x3cc5ce8c	0.02414634
69	0x3d2cbc2f	0.042171653
70	0xbd868501	-0.06568337
71	0xbd03e4be	-0.032200567
72	0xbc5de47e	-0.013543246
73	0xbe164715	-0.14675553
74	0xbc731ae7	-0.014837957
75	0x3df01b8e	0.11724006
76	0xbe14452b	-0.1447951
77	0x3de30b34	0.11086121
78	0x3dab3f10	0.083616376
79	0xbd5ad87c	-0.05342911
80	0x3df5671c	0.11982557
81	0xbdc92d11	-0.09823049
82	0xbdae64bc	-0.08515307
83	0xbd01fac7	-0.0317333
84	0xbe132c71	-0.14372422
85	0xbdbfd14f	-0.09366094
86	0x3c0d1d6f	0.008612975
87	0x3dbf70f8	0.09347719
88	0xbdf318cb	-0.11869963
89	0x3dd2d362	0.10294224
90	0x3ce66fc8	0.028129473
91	0xbc723d26	-0.014785087
92	0xbcc74bed	-0.024328196
93	0x3d8cc997	0.06874388
94	0xbd28ed8a	-0.04124216
95	0xbd86f39a	-0.06589432
96	0x3ce62f7a	0.02809881
97	0xbcead621	-0.028666558
98	0x3d95fa64	0.07323149
99	0xbda9c49d	-0.08289454
100	0x3ca9cb45	0.02072681
101	0xbe084db8	-0.13310897
102	0xbdeee259	-0.11664266
103	0xbcf79daa	-0.030226547
104	0x3d7e377e	0.06206464
105	0xbdafbf6e	-0.08581434
106	0xbdd54f77	-0.10415547
107	0x3cc82e30	0.024436086
108	0xbd097a0c	-0.03356366
109	0xbdaa31f7	-0.08310311
110	0xbd1c4086	-0.03814747
111	0x3de35ba5	0.11101464
112	0x3e0aabbc	0.13542074
113	0xbbf6cfd9	-0.0075321016
114	0x3d32cd82	0.04365302
115	0xbe21d3ca	-0.15803447
116	0xbdd622ac	-0.10455832
117	0x3d5cad22	0.05387605
118	0x3e2170e5	0.15765722
119	0x3e084d1f	0.1331067
120	0xbb764f10	-0.0037583746
121	0x3e06cb6a	0.13163534
122	0x3d95403f	0.072876446
123	0xbda81d13	-0.082086705
124	0xbcfeec68	-0.031118587
125	0xbe16a9e4	-0.14713246
126	0xbdd30f1b	-0.103056155
127	0xbe011858	-0.12606943
128	0x3d38a667	0.04508057
129	0x3e05242b	0.13002078
130	0xbcea4d10	-0.0286012
131	0xbd916d6c	-0.07100949
132	0x3c10f9b0	0.008848593
133	0xbc592eeb	-0.013255815
134	0xbe077492	-0.13228062
135	0x3b6533ff	0.003497362
136	0x3d0e4e67	0.03474274
137	0x3d05802c	0.032592937
138	0xbe0c2ebe	-0.13689706
139	0xbd96ffba	-0.07372995
140	0xbd39e80c	-0.045387313
141	0xbcd9f7e7	-0.026607467
142	0xbe092a1c	-0.1339497
143	0x3e278ee8	0.16363108
144	0xbd577f93	-0.0526119
145	0x3da9c2f0	0.082891345
146	0xbd1547c6	-0.0364454
147	0xbd90ed32	-0.070764914
148	0x3c1042eb	0.008805017
149	0x3e0e95ea	0.13924375
150	0x3d653714	0.05596073
151	0xbdae5cc0	-0.085137844
152	0x3d872d6c	0.066004604
153	0xbd841439	-0.0644917
154	0x3d9604d2	0.07325138
155	0x3e04a9c1	0.12955381
156	0x3d1c8134	0.038209155
157	0x3da8e3de	0.08246587
158	0x3e0ca016	0.13732943
159	0xbd94e80a	-0.072708204
160	0x3d4520e6	0.048127078
161	0x3dce7908	0.10081679
162	0x3cee10bf	0.02906072
163	0xbd955d28	-0.07293159
164	0x3d469759	0.04848418
165	0xbda5f53f	-0.081034176
166	0xbe0857e0	-0.13314772
167	0xbbe40a18	-0.006959211
168	0x3d266610	0.040624678
169	0x3ce7d3f2	0.028299306
170	0xbe1f6231	-0.15564801
171	0xbc1f4e2c	-0.0097232275
172	0xbd3a53da	-0.045490123
173	0xbd688fc2	-0.056777723
174	0x3d847d83	0.06469252
175	0xbdf76a65	-0.1208084
176	0xbd0ab6a7	-0.033865597
177	0x3d08deb1	0.0334155
178	0x3e1efea3	0.15526824
179	0x3d8e1ebb	0.06939455
180	0x3d5bdfc6	0.053680204
181	0xbd79a56d	-0.060948778
182	0x3d48d891	0.04903466
183	0x3d64dca4	0.05587448
184	0x3dc58da9	0.0964616
185	0x3cd0788e	0.02544811
186	0x3c55ee5d	0.0130573185
187	0x3deeda00	0.11662674
188	0xbdd0463b	-0.101696454
189	0xbe1498d4	-0.14511424
190	0x3e1f5cc9	0.15562738
191	0xbd74fd85	-0.059812088
192	0xbded9e0d	-0.116024114
193	0xbc178523	-0.009248051
194	0x3dc9f56b	0.09861263
195	0xbdcc1e3f	-0.099667065
196	0x3940d3b5	0.00018389414
197	0xbd79a9c4	-0.060952917
198	0x3e109758	0.14120233
199	0x3e0a6c17	0.13517796
200	0x3db0fbd2	0.08641781
201	0x3d8be275	0.068303026
202	0xbcd15bf7	-0.025556548
203	0x3e096f77	0.13421427
204	0x3df018f3	0.11723509
205	0xbd44ffed	-0.048095632
206	0xbc911863	-0.017711824
207	0xbdd7a9fe	-0.1053047
208	0xbceb25ec	-0.028704606
209	0x3d5a48bc	0.05329202
210	0x3e1922bb	0.14954655
211	0x3c8d3c91	0.017240794
212	0x3dbc9aae	0.0920919
213	0xbb6c21ca	-0.0036030882
214	0x3b37f2e4	0.0028068358
215	0x3df1c21e	0.11804603
216	0x3e0e6c3a	0.13908473
217	0x3d365d25	0.044522423
218	0xbe1b575b	-0.15170042
219	0x3e166612	0.14687374
220	0xbbc6e618	-0.00606991
221	0x3dd06dd2	0.101771966
222	0xbe201b90	-0.15635514
223	0x3d2edf03	0.04269315
224	0xbd103397	-0.03520545
225	0xbe02fdf4	-0.12792188
226	0x3d960933	0.07325973
227	0x3d435e30	0.047697246
228	0x3d97737e	0.07395075
229	0x3ccc574e	0.024943974
230	0x3c5ace66	0.013354873
231	0xbc8def69	-0.017326074
232	0x3d72f05b	0.059311252
233	0xbc68c7b6	-0.014207771
234	0xbd6f7f5b	-0.058471065
235	0xbe14a572	-0.14516237
236	0x3d828cef	0.06374537
237	0xbe0fa4fd	-0.14027782
238	0x3cd0e430	0.025499433
239	0xbd9c9866	-0.07646255
240	0x3dc83455	0.097756065
241	0x3dc4360d	0.09580622
242	0xbd85ba90	-0.065297246
243	0xbdfbb3cc	-0.12290153
244	0x3c85672b	0.016284546
245	0xbbac7aaa	-0.005263646
246	0xbdbc59cc	-0.09196815
247	0x3d87560b	0.06608208
248	0x3def67d8	0.116897285
249	0x3cff316b	0.031151494
250	0x3da13155	0.078707375
251	0xbd9111e9	-0.07083494
252	0x3d29ca00	0.041452408
253	0x3e0a0fbf	0.13482569
254	0x3ddecbef	0.10878741
255	0x3c26a74b	0.010171722

sequential_1/dense_3/MatMul f4 [42, 48]
0	0x3e56357b	0.20918839
1	0xbdde9e63	-0.108700536
2	0xbe445b16	-0.19175372
3	0xbd727b99	-0.059199903
4	0xbe081fea	-0.13293424
5	0x3e7033e8	0.234573
6	0xbcb96e1d	-0.022635514
7	0xbcb5d015	-0.022193948
8	0xbe40aa41	-0.18814947
9	0x3dfc2cc4	0.12313226
10	0x3e9b9e0a	0.30394012
11	0x3d998dc4	0.07497743
12	0xbe33a018	-0.1754154
13	0xbdc2b48a	-0.09507091
14	0xbe079a39	-0.13242425
15	0x3d3d429c	0.0462061
16	0xbd228d58	-0.039685577
17	0x3db9ebb1	0.09078158
18	0x3d090438	0.03345129
19	0xbe2754e8	-0.16340983
20	0x3e7f0f5a	0.249082
21	0xbe79ebd5	-0.24406369
22	0xbce32901	-0.027729513
23	0xbe11fdd5	-0.14256985
24	0xbd16efc7	-0.036849763
25	0x3e2ce3ee	0.16883823
26	0x3e493057	0.19647346
27	0xbdcf606c	-0.10125813
28	0xbe1f8a9e	-0.15580222
29	0x3e510327	0.20411359
30	0xbcc17e99	-0.023619937
31	0xbdd2c554	-0.102915436
32	0xbe039933	-0.1285141
33	0xbe408608	-0.18801129
34	0xbb75a904	-0.0037484774
35	0x3c76d3d5	0.015065153
36	0x3e14213e	0.14465806
37	0xbcdf7bfa	-0.027280796
38	0x3d63b55d	0.055592883
39	0xbd804c47	-0.06264549
40	0xbe358d3b	-0.17729656
41	0xbe3b5fa3	-0.18298201
42	0xbdab1cd6	-0.083551094
43	0xbd5cfb28	-0.05395046
44	0x3e0e406d	0.13891764
45	0xbe33c049	-0.1755382
46	0x3e1100a1	0.14160396
47	0xbce2f9e3	-0.027707046
48	0xbe14e641	-0.1454096
49	0xbdd4be94	-0.103879124
50	0xbeb51b4b	-0.35372385
51	0x3e5f2e14	0.21794921
52	0xbd83f3b2	-0.064429656
53	0x3e7bcaf0	0.24589133
54	0x3d157ceb	0.036496084
55	0x3ddf6e66	0.10909729
56	0x3dcf70cb	0.101289354
57	0x3e272a92	0.16324833
58	0x3e29523e	0.16535279
59	0x3c2b307b	0.01044857
60	0xbd32cbce	-0.043651395
61	0x3c5ed3d9	0.013600313
62	0x3d436c34	0.047710612
63	0x3dac6997	0.08418577
64	0xbdcd1712	-0.10014166
65	0x3e22c8db	0.15896933
66	0x3d89fe09	0.067379065
67	0x3e40c9ba	0.18826953
68	0x3dcf7cd9	0.10131235
69	0xbdaf57d3	-0.08561673
70	0x3e5a6557	0.2132772
71	0xbe0483fc	-0.12940973
72	0x3e0b0545	0.13576229
73	0x3d3ab4ff	0.045582768
74	0xbd19106d	-0.03736918
75	0xbe02b876	-0.12765679
76	0x3e73df8a	0.23815742
77	0x3e2c0ba4	0.16801316
78	0xbe51470d	-0.2043726
79	0x3d863132	0.06552352
80	0xbde9cb86	-0.11415772
81	0x3e497525	0.19673593
82	0xbd878c63	-0.066185735
83	0x3e693223	0.22773032
84	0xbce0ce72	-0.02744219
85	0x3e038c5b	0.1284651
86	0x3a7c0fd9	0.00096153986
87	0xbe87597b	-0.26435456
88	0x3d1bc28f	0.038027342
89	0x3e06db6c	0.1316964
90	0xbc7f124a	-0.015568325
91	0xbcdb9a18	-0.026806876
92	0xbe2f7e6f	-0.17138074
93	0x3e0c854c	0.13722724
94	0xbe04e574	-0.12978154
95	0x3d19484b	0.03742246
96	0xbe53c0d0	-0.20679021
97	0x3e2e2181	0.17004968
98	0x3dbb8816	0.09156816
99	0xbc87de5c	-0.016585521
100	0x3e209fc7	0.1568595
101	0xbd8e3db0	-0.0694536
102	0x3d184b7d	0.037181366
103	0x3c93168a	0.017955083
104	0x3e902b1d	0.28157893
105	0xbe7ac7e0	-0.24490309
106	0xbe6264f7	-0.22108828
107	0xbe020759	-0.12698115
108	0xbe0fc452	-0.14039734
109	0x3e4c1599	0.19930114
110	0x3cdfa5b0	0.027300686
111	0x3d6b94ab	0.057514828
112	0xbddba06f	-0.1072396
113	0xbd4986b7	-0.04920074
114	0xbe49a822	-0.19693044
115	0x3e2061c6	0.15662298
116	0x3e724c7a	0.23661986
117	0xbd8ebe4f	-0.06969892
118	0xbe0d879c	-0.13821262
119	0xbe0578b6	-0.13034329
120	0xbd3f8f71	-0.046767656
121	0xbdd259ac	-0.1027101
122	0x3e9a042b	0.30081305
123	0x3e5c173a	0.21493235
124	0xbce8b132	-0.028404806
125	0x3db61600	0.08890915
126	0xbc3cddef	-0.0115275225
127	0xbda742a8	-0.081670105
128	0x3e81e4b1	0.2536979
129	0x3e6a4fe5	0.2288204
130	0x3d0034c7	0.031300332
131	0x3db065ea	0.086131886
132	0xbd154149	-0.036439214
133	0xbe7d89b3	-0.2475956
134	0xbe345c1d	-0.17613263
135	0x3ca70ff9	0.020393359
136	0x3c390b48	0.011294194
137	0x3d90c91d	0.07069609
138	0xbd60c94d	-0.054879475
139	0x3e0c5e81	0.13707925
140	0x3d8c5075	0.068512835
141	0x3eb9601d	0.3620614
142	0x3de9bbe2	0.11412789
143	0x3d6de3b7	0.058078494
144	0xbe846018	-0.25854564
145	0xbd880786	-0.0664206
146	0xbed27920	-0.41108036
147	0x3cd9c8e0	0.026585042
148	0x3d4dbe28	0.050230175
149	0xbe10d4e7	-0.14143716
150	0x3d16d067	0.03681984
151	0xbdfd192e	-0.12358318
152	0xbcfcb143	-0.030846244
153	0xbcfc9204	-0.030831344
154	0x3ea57acd	0.32320252
155	0x3e8a07b8	0.26959014
156	0x3e39cdb3	0.18144874
157	0xbe830336	-0.25588387
158	0xbe4d4a19	-0.20047797
159	0x3d12ea6b	0.03586809
160	0x3e48b436	0.19599995
161	0xbd6f6f02	-0.058455475
162	0x3e40634f	0.18787883
163	0xbd73dfa6	-0.05953946
164	0xbd814a2b	-0.063129745
165	0xbdeb1953	-0.114794396
166	0x3e255597	0.16145931
167	0x3e56ed13	0.20988874
168	0xbb29ad4a	-0.0025890642
169	0xbdbf3fe3	-0.09338357
170	0x3dc40c91	0.09572709
171	0x3e5c8ebc	0.21538824
172	0xbdb952d3	-0.090490006
173	0xbb8fb077	-0.00438505
174	0x3db11a8f	0.08647644
175	0xbda9bd95	-0.08288113
176	0x3e27232d	0.16322012
177	0xbdb4fcda	-0.0883729
178	0xbc886d44	-0.016653664
179	0xbd857edf	-0.06518339
180	0x3dcfdecf	0.10149919
181	0x3d4d0b5a	0.050059654
182	0x3e54c517	0.20778309
183	0xbe16ef29	-0.1473967
184	0xbdeb254e	-0.11481725
185	0x3e40733d	0.1879396
186	0x3cfc0836	0.030765634
187	0xbcea4166	-0.028595638
188	0xbe1f0709	-0.15530027
189	0xbd2a72ec	-0.041613504
190	0x3dacf04a	0.08444269
191	0x3c99f611	0.018794091
192	0xbd88588f	-0.06657516
193	0xbe630476	-0.2216967
194	0xbe22284d	-0.15835686
195	0x3d0c517f	0.03425741
196	0x3d572d29	0.052533302
197	0x3d56c949	0.052438054
198	0x3ca5ee19	0.020255135
199	0xbd9b4d38	-0.07583088
200	0x3e3d6215	0.18494447
201	0xbd36e016	-0.0446473
202	0x3dd320c6	0.103089854
203	0x3e15dc49	0.14634813
204	0x3e0d9e9d	0.13830037
205	0xbe3356c5	-0.17513569
206	0x3e66abde	0.225265
207	0x3dbc287a	0.09187408
208	0x3b2e029b	0.0026551846
209	0xbdfe7fec	-0.12426743
210	0x3e512996	0.2042602
211	0x3c978405	0.018495569
212	0xbda41014	-0.08010879
213	0x3dc560df	0.09637617
214	0xbe47f84b	-0.1952831
215	0xbd6becb3	-0.05759878
216	0x3e5c028b	0.21485345
217	0xbe0fe06a	-0.14050451
218	0xbd0347af	-0.032050785
219	0x3d528bd4	0.05140288
220	0xbcda4f6f	-0.026649205
221	0x3db5c7c4	0.08875993
222	0xbdf6cf2f	-0.12051236
223	0x3d5836a9	0.052786503
224	0x3e4d3078	0.2003802
225	0xbdb1fde1	-0.08691002
226	0xbe4d0707	-0.20022212
227	0xbe449ba8	-0.19200003
228	0xbe2cb6cf	-0.16866611
229	0x3d4b1374	0.0495791
230	0x3de39a8d	0.111134626
231	0x3ddfe918	0.10933131
232	0xbd16ee87	-0.03684857
233	0x3e203a13	0.15647154
234	0x3db8c23f	0.090214245
235	0xbbd90ad0	-0.0066236034
236	0xbd747280	-0.05967951
237	0x3e945bbf	0.28976247
238	0x3e82af59	0.25524405
239	0xbd79fcd1	-0.06103212
240	0x3c6fd581	0.014638306
241	0xbd239d6f	-0.039945062
242	0xbe82a7d5	-0.2551867
243	0x3d5fbd44	0.054623857
244	0x3e7a5f7c	0.24450487
245	0xbcfc9403	-0.030832296
246	0xbd9017e3	-0.07035806
247	0x3d72f5c4	0.05931641
248	0xbe07d2bc	-0.13263983
249	0xbe82904d	-0.25500718
250	0xbccebeab	-0.025237402
251	0x3e9a9a63	0.30195913
252	0xbe0191ed	-0.12653323
253	0x3e0429f4	0.12906629
254	0x3d4eb5ba	0.050466277
255	0x3d8bc060	0.06823802

sequential_1/lstm_2/Read_2/ReadVariableOp1 f4 [896]
0	0x3c03af25	0.008037363
1	0xbc3394ac	-0.010960739
2	0x3cd18a28	0.025578573
3	0xbb16eb76	-0.002302853
4	0x3d240211	0.040041033
5	0xbca996c0	-0.020701766
6	0x3cb78177	0.0224006
7	0x3d07d925	0.03316607
8	0x3d93125a	0.07181235
9	0x3d32d146	0.04365661
10	0x3e39d65e	0.18148181
11	0x3d2bf4a0	0.04198134
12	0x3d6827f7	0.05667874
13	0x3bda4806	0.006661418
14	0xb9688c31	-0.0002217747
15	0x3dc4ba61	0.096058615
16	0xbc87ba43	-0.016568309
17	0xba10ab7b	-0.00055187166
18	0x3d56c030	0.052429378
19	0xbbc72b8a	-0.0060781883
20	0x3cd0c55c	0.025484733
21	0x3c9cf9e8	0.019162133
22	0x3c9480f6	0.0181279
23	0x3d8341de	0.064090475
24	0x3c602458	0.01368054
25	0x3c274b8a	0.010210881
26	0xbc3957da	-0.011312449
27	0x3dda63c5	0.10663561
28	0xbcd68f07	-0.026191248
29	0x3d151caa	0.03640429
30	0x3d4ce06b	0.05001871
31	0x3d35bd25	0.044369835
32	0xbc3dd74b	-0.011586974
33	0x3d6892b7	0.056780543
34	0x3c1fc8b5	0.009752442
35	0x3c94795c	0.018124275
36	0x3dc4ab0e	0.096029386
37	0x3d7f7cea	0.062374987
38	0xbc57bb30	-0.013167188
39	0x3d583998	0.0527893
40	0x3c85d84f	0.016338496
41	0x3d591350	0.052996933
42	0xbcafa07e	-0.021438833
43	0xbbc1e365	-0.005917
44	0x3d4b8c17	0.049694147
45	0x3c90e4d5	0.01768724
46	0x3c4e7821	0.012601883
47	0x3d92f729	0.07176048
48	0x3c13b621	0.009015591
49	0x3cce7780	0.025203466
50	0x3cec0737	0.028812034
51	0xbb8176e8	-0.0039509423
52	0x3bb906e7	0.005646575
53	0x3c880a22	0.016606394
54	0x3d090ca2	0.033459313
55	0x3c48a003	0.012245181
56	0x3cd40802	0.025882725
57	0x3d900caa	0.070336655
58	0x3d4d5f7c	0.05013989
59	0x3caf83fb	0.021425238
60	0x3cb10991	0.021611007
61	0x3b408763	0.0029377572
62	0x3cd6ca0a	0.026219387
63	0x3dbd486d	0.0924233
64	0x3c7660b5	0.015037705
65	0x3d819f5e	0.06329225
66	0x3cc2d900	0.023785114
67	0x3cb8eee2	0.022574846
68	0x3cead7cb	0.028667351
69	0x3d2981c8	0.041383535
70	0x3c7411a8	0.014896788
71	0x3d66c9e5	0.056344885
72	0x3d1dc08b	0.0385137
73	0xbb9c30c1	-0.004766554
74	0xbc6b1e95	-0.014350553
75	0x3d99e348	0.075140536
76	0x3df36732	0.11884917
77	0x3b82839d	0.0039829747
78	0x3c5565e2	0.013024779
79	0x3db1e329	0.086859055
80	0xbc975ac4	-0.018475898
81	0x3cc06479	0.02348541
82	0x3cee409b	0.02908354
83	0x3db98a89	0.090596266
84	0x3c909adf	0.017651973
85	0x3d20b1c0	0.039232016
86	0x3dbda1b4	0.09259358
87	0x3db880a0	0.09008908
88	0xbc97c5bc	-0.018526904
89	0x3d4b8cf8	0.049694985
90	0x3d8c7b99	0.06859512
91	0xbc36f732	-0.011167334
92	0x3e04ce2c	0.12969273
93	0x3c8e4167	0.01736517
94	0xbc4472d5	-0.011990269
95	0x3b836ffe	0.0040111532
96	0x39b4cc6d	0.00034484584
97	0x3dd82315	0.10553566
98	0x3c060773	0.008180487
99	0x3bf30345	0.0074161612
100	0x3d0c65bd	0.034276713
101	0x3c036a31	0.0080209235
102	0x3bb160f0	0.005413167
103	0x3d1febee	0.03904336
104	0x3d8b30ae	0.06796394
105	0x3bf575dd	0.007490857
106	0x3c0928be	0.00837153
107	0x3c0334c0	0.008008182
108	0x3b6d6d34	0.003622842
109	0xbc34b245	-0.011028831
110	0x3d85e60b	0.06538018
111	0x3d02d3bf	0.031940218
112	0x3d9484b4	0.072518736
113	0x3db4e98a	0.088336065
114	0x3c4ac820	0.012376815
115	0xbb4cf6b7	-0.0031274983
116	0x3ca34089	0.019928234
117	0x3e6c4080	0.2307148
118	0x3d820745	0.06349043
119	0x3d7f7075	0.062363107
120	0x3ce06dfd	0.027396196
121	0x3c90996e	0.017651286
122	0x3c819232	0.015816782
123	0x3d110fa9	0.035415325
124	0xbc829887	-0.015941871
125	0x3ca8bc6e	0.020597663
126	0x3cb87ca1	0.022520365
127	0x3e2320f0	0.15930533
128	0xbc4ba7ba	-0.012430126
129	0xbbc8bb02	-0.0061258087
130	0x3c80c52b	0.015719017
131	0x3cb93e3c	0.022612683
132	0xbbebc1da	-0.0071947398
133	0x3ccd604b	0.02507033
134	0x3daa3615	0.083110966
135	0x3d1d99d2	0.038476773
136	0xbc5a623f	-0.013329088
137	0x3d253761	0.040336017
138	0xbbc9c5d6	-0.006157617
139	0xbbcffeaf	-0.0063474993
140	0xbc200b05	-0.009768252
141	0x3d74cd05	0.059765834
142	0x3ce6bf9e	0.028167542
143	0x3b3babdd	0.0028636374
144	0x3bc7b419	0.0060944674
145	0xbcba059b	-0.022707751
146	0x3bba5e3e	0.005687504
147	0x3ccb5ee2	0.024825517
148	0x3bff2872	0.007786804
149	0xbc9113ae	-0.01770958
150	0x3d953152	0.07284798
151	0x3c6d3793	0.014478582
152	0x3b0dcc12	0.0021636528
153	0x3cbea9cc	0.023274325
154	0xbc7bef8f	-0.015376939
155	0x3d17895f	0.03699624
156	0x3a4a1434	0.0007708699
157	0x3ca1ac65	0.019735524
158	0x3d4f07cc	0.050544545
159	0x3bc3c099	0.005973887
160	0x3bfec942	0.0077754566
161	0x3bc4d320	0.0060066134
162	0x3d79ceca	0.060988225
163	0x3c059938	0.008154206
164	0x3c02c575	0.007981648
165	0x3c7790a3	0.015110168
166	0x3cdbb288	0.026818529
167	0x3d273bf4	0.04082866
168	0x3cdf0518	0.027224109
169	0x3d7395a7	0.05946889
170	0x3d5389be	0.051645033
171	0x3dac888e	0.08424483
172	0x3d19bc57	0.03753313
173	0x3cb38383	0.021913296
174	0x3da3be93	0.079953335
175	0x3c595f62	0.01326737
176	0x3c95ab2a	0.018270094
177	0x3bfdc336	0.007744218
178	0x3c68965e	0.014196007
179	0xbb37d7f7	-0.002805231
180	0x3c7f5c37	0.015585951
181	0x3c551657	0.0130058145
182	0xbbc2fe64	-0.005950736
183	0x3d2c438b	0.0420566
184	0xbcbeb666	-0.023280334
185	0x3ba433d5	0.0050110617
186	0x3d4ede79	0.050505135
187	0xbc2d5534	-0.010579396
188	0x3c0fa282	0.008766772
189	0x3c72774a	0.014798949
190	0x3d469f78	0.048491925
191	0x3d896e9d	0.06710551
192	0x3e8e378b	0.2777675
193	0x3b71dc2f	0.0036904921
194	0x3d0ba25d	0.03409039
195	0x3cfbf6f7	0.03075741
196	0x3d0dff47	0.03466728
197	0x3c08adfb	0.008342261
198	0xbae3facc	-0.0017393469
199	0x3d555db5	0.05209132
200	0x3cd0ece0	0.025503576
201	0x3d89c206	0.0672646
202	0x3dae8ada	0.085225776
203	0x3d0263f0	0.03183359
204	0x3d25f4d6	0.040516697
205	0x3c30d190	0.010792151
206	0x3c2873fa	0.010281557
207	0x3d76f195	0.060288984
208	0x3c78c0a4	0.015182648
209	0x3d962fbf	0.073333256
210	0x3cd3b500	0.025843143
211	0x3d389d38	0.04507181
212	0x3d5d42e6	0.054018877
213	0xba2cdf79	-0.00065945793
214	0x3cf5c4f4	0.030001141
215	0x3dc1be1f	0.09460091
216	0xbc01b734	-0.007917214
217	0xbb69a23a	-0.0035649673
218	0x3bd412ee	0.006471983
219	0x3bd016c6	0.006350371
220	0x3d144129	0.036194954
221	0x3d16bb5e	0.03679978
222	0xbc292841	-0.010324539
223	0x3ccca02d	0.024978722
224	0x3f7c59be	0.98574436
225	0x3f7bd975	0.9837869
226	0x3f7e2b7a	0.9928509
227	0x3f803039	1.0014716
228	0x3f850d1a	1.0394623
229	0x3f7a90a0	0.9787693
230	0x3f74df73	0.95653456
231	0x3f7c2698	0.9849639
232	0x3f732a05	0.9498599
233	0x3f7ff289	0.99979454
234	0x3f7fbf21	0.99901015
235	0x3f7ced58	0.9879966
236	0x3f7f1e26	0.9965538
237	0x3f76a339	0.9634281
238	0x3f7fc687	0.99912304
239	0x3f8176b1	1.0114347
240	0x3f7e6e34	0.99386907
241	0x3f7d64ec	0.9898212
242	0x3f785d03	0.97016925
243	0x3f804dbb	1.0023721
244	0x3f7e71bf	0.9939231
245	0x3f8198df	1.0124778
246	0x3f7de429	0.9917627
247	0x3f7a7d40	0.97847366
248	0x3f80064e	1.0001924
249	0x3f817845	1.0114828
250	0x3f7d7ef1	0.9902182
251	0x3f6fde42	0.93698514
252	0x3f7a8d86	0.978722
253	0x3f80185a	1.0007432
254	0x3f7f172e	0.99644744
255	0x3f80ced9	1.0063125

while/MatMul_11 f4 [896, 224]
0	0xbd0fe546	-0.03513076
1	0x3c7b09af	0.015322133
2	0xbde46269	-0.11151583
3	0x3d36aa18	0.044595808
4	0xbc049b93	-0.008093732
5	0x3cf8d420	0.030374587
6	0xbd0de1ef	-0.034639295
7	0x3d3aca23	0.04560293
8	0xbc3ba07f	-0.0114518395
9	0xbd9d65c3	-0.07685425
10	0xbcb3e7e0	-0.021961153
11	0x3d3738d8	0.044731945
12	0xbdc7db7d	-0.09758661
13	0x3d8e3c2d	0.06945071
14	0xbd28c95c	-0.041207656
15	0x3c03eea5	0.008052503
16	0xbc5e147b	-0.013554688
17	0xbd3c047b	-0.04590271
18	0x3d29dff0	0.04147333
19	0x3d2da41f	0.042392846
20	0x3cad8681	0.0211823
21	0x3b9d6306	0.0048030643
22	0xbc0a4883	-0.00844014
23	0x3d5b75c0	0.053579092
24	0x3d5279af	0.051385578
25	0xbdc7a53d	-0.097483136
26	0x3c9ab033	0.018882846
27	0xbd4fb630	-0.050710857
28	0x3d85eb0a	0.06538971
29	0x3da41673	0.08012094
30	0x3d98e41e	0.07465385
31	0x3d237542	0.039906748
32	0xbd167aeb	-0.036738317
33	0xbd626526	-0.055272244
34	0x3bdf7e2e	0.0068204617
35	0xbc816dc5	-0.015799413
36	0xbd52ce3c	-0.05146621
37	0xbc598bbe	-0.013277946
38	0xbd2c6e6c	-0.042097494
39	0x3dd7bdbf	0.10534238
40	0xbab04551	-0.0013448392
41	0x3c0f6c22	0.008753808
42	0xbd63b2f0	-0.05559057
43	0xbe058b4b	-0.13041417
44	0xbddbf558	-0.10740155
45	0xbc93256d	-0.017962182
46	0xbd3243aa	-0.04352156
47	0x3d36c2d7	0.044619408
48	0xbb83c021	-0.0040207063
49	0xbc49c56a	-0.012315134
50	0xbccea987	-0.025227321
51	0x3c12de4f	0.008964135
52	0xbd2e3f27	-0.042540696
53	0x3d67e165	0.056611437
54	0xbc441e2e	-0.011970086
55	0x3c138cac	0.009005707
56	0xbd4ae16a	-0.049531378
57	0xbcb22207	-0.021744741
58	0xbb6b98d6	-0.0035949252
59	0x3c91aa4a	0.017781395
60	0xbd9101ef	-0.07080447
61	0x3dd5843f	0.104256146
62	0xbc4d2c9c	-0.012522843
63	0xbe007379	-0.1254405
64	0xbc8a9d79	-0.016920792
65	0x3e12b994	0.14328605
66	0x3d720d50	0.059094727
67	0xbd8f7e0f	-0.07006466
68	0xbd30a088	-0.043121845
69	0xbd0d29b9	-0.034463618
70	0x3d8cb3ee	0.06870256
71	0x3db3e472	0.08783807
72	0x3cb1519a	0.021645356
73	0xbc7b74ed	-0.0153477015
74	0x3c7eb3d1	0.015545801
75	0x3b8991bf	0.0041982825
76	0xbe5f8619	-0.21828498
77	0x3c321c8b	0.010871063
78	0xbd414944	-0.047189012
79	0x3dede05a	0.11615057
80	0x3ca729be	0.020405646
81	0xbda53c4c	-0.08068141
82	0x3cb601a5	0.022217581
83	0xbb3a9313	-0.002846901
84	0x3d8af001	0.06784058
85	0xbd3946e7	-0.045233633
86	0xbca7ee4e	-0.020499375
87	0x3dbc7f1e	0.09203933
88	0xbd8e64ee	-0.069528446
89	0x3dc20ee0	0.094754934
90	0x3e2c949c	0.16853565
91	0x391f1b7b	0.00015173659
92	0x3dc0a083	0.09405615
93	0xbc7510bb	-0.014957602
94	0x3d294c69	0.041332636
95	0xbd145078	-0.036209553
96	0x3c4b1ceb	0.012397031
97	0xbd4343fb	-0.047672253
98	0x3d8573db	0.06516238
99	0x3d876295	0.066106
100	0x3c9a0acb	0.018803975
101	0x3caf2b3d	0.021382922
102	0x3ba344b3	0.004982555
103	0x3ce24ab2	0.027623508
104	0xbd75daa8	-0.06002298
105	0x3e122eb8	0.14275634
106	0x3d99e6bb	0.075147115
107	0x3d79e51a	0.061009504
108	0xbda05dc7	-0.078303866
109	0x3ca31b40	0.019910455
110	0xbe03da26	-0.12876186
111	0x3dbf3f97	0.09338301
112	0x3d475979	0.048669312
113	0x3d0a1f34	0.033721164
114	0xbd884343	-0.06653454
115	0xbd38310b	-0.044968646
116	0x3db108b6	0.086442396
117	0x3d8e46aa	0.06947072
118	0xbd3bb83f	-0.045830008
119	0xbceca55a	-0.02888744
120	0xbc378b29	-0.011202612
121	0xbd0b531c	-0.034014806
122	0x3b60fcd1	0.0034330378
123	0x3d690440	0.05688882
124	0x3de1f4ee	0.11033045
125	0x3c987b79	0.018613564
126	0x3db97fd7	0.09057587
127	0xbdf79106	-0.12088208
128	0xbcb87cf9	-0.02252053
129	0xbd244ca4	-0.040112153
130	0xbda6ad01	-0.081384666
131	0xbdb1c6a4	-0.08680466
132	0x3cea082e	0.028568354
133	0x3c58d6ed	0.013234836
134	0xbde17960	-0.110094786
135	0x3d102220	0.035188794
136	0x3c1691da	0.009190047
137	0x3bc0d4f2	0.00588476
138	0xbc445969	-0.011984208
139	0x3d00aa3d	0.031412352
140	0x39feaa7f	0.00048573685
141	0xbdc033a2	-0.09384848
142	0xbd1930c6	-0.03740003
143	0x3d5a7f4d	0.05334406
144	0xbd4bc16c	-0.04974501
145	0x3d88b3b1	0.066748984
146	0xbd5d8720	-0.054083943
147	0xbc0b2110	-0.008491769
148	0x3d051891	0.03249413
149	0x3cbf0e8a	0.023322362
150	0x3d6ed158	0.058305115
151	0x3ce981f8	0.028504357
152	0xbcedb748	-0.02901806
153	0x3da4cb72	0.080466166
154	0xbd385a6f	-0.04500812
155	0xbd95038b	-0.072760664
156	0xb8d24a62	-0.00010027435
157	0x3b22719b	0.0024786952
158	0xbd06b1ae	-0.032884292
159	0x3c3acf94	0.01140203
160	0xbaf92959	-0.0019009515
161	0x3d54600f	0.05184942
162	0xbc04bf53	-0.008102256
163	0x3cabec37	0.02098666
164	0x3c2e220f	0.010628237
165	0xbd362e86	-0.044477962
166	0x3c9a428c	0.01883056
167	0x3de908d5	0.11378638
168	0xbc08e93b	-0.008356388
169	0xbb157834	-0.0022807242
170	0xbd888e21	-0.06667734
171	0xbc80a2b2	-0.01570258
172	0xbd2d914b	-0.04237489
173	0xbbcc74ff	-0.006239533
174	0x3da93be4	0.08263376
175	0xbdd1fc4a	-0.102531984
176	0x3c4703bc	0.012146886
177	0x3ad3dff7	0.0016164769
178	0xbda783a7	-0.081794076
179	0x388d8251	6.747677e-05
180	0x3c26d70a	0.010183105
181	0x3d13532b	0.035967987
182	0xbc685a8d	-0.014181745
183	0xbdbce1eb	-0.09222778
184	0xbdaeea3b	-0.0854077
185	0x3c26e71e	0.010186939
186	0x3c82270c	0.01588776
187	0xbae6278e	-0.0017559396
188	0x3c1740b4	0.009231735
189	0x3dd5be00	0.1043663
190	0xbc0899d0	-0.008337453
191	0xbdbdf78b	-0.09275731
192	0x3e32c19f	0.17456673
193	0xbd4c88d3	-0.049935173
194	0xbdb899fd	-0.09013746
195	0xbdc2cfc3	-0.09512284
196	0x3d03e014	0.03219612
197	0xbd4285b9	-0.04749081
198	0xbc58d8fd	-0.013235328
199	0xbb73fa80	-0.0037228167
200	0xbb54cf24	-0.0032472098
201	0xbc57472b	-0.013139526
202	0xbd44a946	-0.048012994
203	0xbc947be1	-0.018125476
204	0x3db2c9cf	0.08729898
205	0xbdce0dad	-0.10061202
206	0xbd26e2a9	-0.040743504
207	0x3d0c96f2	0.03432364
208	0xba9ce6ba	-0.0011970617
209	0x3d1c1da8	0.03811422
210	0x3cf25fc3	0.029586678
211	0xbd03f274	-0.032213643
212	0xbdb9d6d4	-0.09074178
213	0xbcd32ccb	-0.025778195
214	0x3ab3955a	0.0013701126
215	0xbe4020ca	-0.18762508
216	0x3a226df4	0.0006196194
217	0xbd7164df	-0.05893409
218	0xbd6b126b	-0.05739061
219	0x3da09bfd	0.078422524
220	0xbd26c7ac	-0.040717766
221	0xbccf021b	-0.025269559
222	0xbc85db6d	-0.016339982
223	0xbd87da29	-0.066334076
224	0x3c2c1fa3	0.01050559
225	0x3d2f5db3	0.042813968
226	0x3ccd5b22	0.02506787
227	0xbd4f013d	-0.05053829
228	0xbd173ffd	-0.03692626
229	0xbd04aba9	-0.03239027
230	0xbd1d0273	-0.038332414
231	0xbd84affe	-0.0647888
232	0x3e0186cf	0.12649082
233	0x3d9f16fc	0.07768056
234	0xbd856c1d	-0.065147616
235	0x3bbed727	0.005823988
236	0xbd47e3df	-0.0488013
237	0xbd47c388	-0.048770458
238	0xbd92ecf0	-0.071740985
239	0x3d2b2ed6	0.041792713
240	0xbba7381d	-0.005103125
241	0xbbbb6a3a	-0.0057194503
242	0xbdb8b27e	-0.0901842
243	0x3c836c08	0.016042724
244	0xbd0494f6	-0.032368623
245	0xbcba85d7	-0.022768898
246	0x3d4ad896	0.04952296
247	0xbd741a91	-0.05959565
248	0x3d420724	0.04737009
249	0x3dc4eebf	0.0961585
250	0x3c872348	0.016496316
251	0x3c4f818e	0.012665166
252	0x3d3353e3	0.043781172
253	0xbb247b1b	-0.002509779
254	0x3d870658	0.06593007
255	0xbc0c3163	-0.008556697

while/MatMul f4 [896, 7]
0	0x3d5f7fa8	0.0545651
1	0xbd2ad9f7	-0.041711774
2	0x3d738a34	0.059457973
3	0x3cda15d1	0.026621731
4	0x3a6a6894	0.0008941975
5	0xbe0bc360	-0.13648748
6	0xbd277931	-0.04088706
7	0x3d9e9f7f	0.07745265
8	0xbd5420b5	-0.051789004
9	0xbdc7dbab	-0.09758695
10	0x3ceebd46	0.029142987
11	0x3e2a2c0a	0.16618362
12	0x3ea3c44f	0.3198571
13	0xbe1a1ed2	-0.1505082
14	0x3ddd5c6f	0.10808646
15	0xbddc2880	-0.10749912
16	0xbd3c91ec	-0.0460376
17	0x3e15a7f2	0.14614847
18	0x3de7ffde	0.113281
19	0xbddddacf	-0.1083275
20	0x3d24c753	0.040229153
21	0x3c03f3ce	0.008053733
22	0x3cdd12f4	0.026986577
23	0xbcd3654a	-0.025805134
24	0x3dd3f44d	0.10349331
25	0xbe32ee0c	-0.1747362
26	0xbd15066e	-0.036383085
27	0xbd848b34	-0.064718634
28	0xbd108596	-0.035283647
29	0xbdf68c87	-0.12038522
30	0xbcaf26b2	-0.021380756
31	0x3c3f9ac6	0.011694616
32	0xbd616141	-0.05502439
33	0x3d883c1c	0.0665209
34	0xbe2806a8	-0.16408789
35	0xbc0a3bf2	-0.008437144
36	0xbc856860	-0.016285121
37	0xbd996db1	-0.07491625
38	0xbd8970f5	-0.06710998
39	0x3d7f25a9	0.062291775
40	0x3d0351b7	0.03206035
41	0xbd21c983	-0.039498817
42	0x3dcf4b91	0.10121835
43	0xbded052b	-0.11573251
44	0x3c063faa	0.00819389
45	0x3dd48766	0.10377388
46	0x3e88016a	0.2656358
47	0x3d907c8e	0.07055007
48	0x3e0abcea	0.13548627
49	0xbd88b974	-0.066759974
50	0xbdf017b3	-0.1172327
51	0x3c741027	0.014896429
52	0xbd2abd02	-0.04168416
53	0xbdee0c90	-0.1162349
54	0xbdbde319	-0.09271831
55	0xbd7e683d	-0.062111128
56	0x3e3f3729	0.18673386
57	0x3ddb39f7	0.10704415
58	0x3dfe5183	0.12417891
59	0x3daddb26	0.08489065
60	0xbe0b299e	-0.13590094
61	0x3db3f6c2	0.087873
62	0x3c621fd2	0.013801532
63	0x3b8af443	0.004240544
64	0x3d2f37ba	0.042777754
65	0x3d5c1cee	0.053738527
66	0x3ce8b497	0.028406424
67	0x3e35a7f6	0.17739853
68	0xbd03d616	-0.03218659
69	0x3e2345d8	0.15944612
70	0x3e111d9c	0.14171451
71	0x3d92dfd0	0.07171595
72	0x3e2ccdc7	0.16875373
73	0x3e45f2dc	0.19330925
74	0x3c4eb1f9	0.012615674
75	0xbe19fe94	-0.1503852
76	0x3e90c5cd	0.2827591
77	0xbdd31901	-0.103075035
78	0xbcef7c9b	-0.029234221
79	0xbd8935b9	-0.066997
80	0xbe23238c	-0.15931529
81	0x3d46590a	0.048424758
82	0x3cba10db	0.022713115
83	0xbdf6f307	-0.120580725
84	0x3c586819	0.013208413
85	0x3cc7b028	0.02437599
86	0x3d8e9cb2	0.06963481
87	0x3ded3499	0.11582298
88	0x3e6207cf	0.22073291
89	0xbc3bb5df	-0.011456936
90	0xbde389a1	-0.11110235
91	0x3e2b145c	0.16706985
92	0x3e4ea7ab	0.20181148
93	0xbddde2a4	-0.10834244
94	0x3e4903ed	0.19630404
95	0xbc093bff	-0.008376121
96	0x3cff879b	0.031192591
97	0xbd9d0a57	-0.07667988
98	0x3cf68cf7	0.030096514
99	0xbde3ff23	-0.11132648
100	0x3beca529	0.007221837
101	0x3cb6b021	0.022300782
102	0x3d623a70	0.05523151
103	0xbd02642a	-0.031833805
104	0xbd1cb8bc	-0.038262114
105	0xbcf41392	-0.029794488
106	0xbe06c8b1	-0.13162495
107	0xbd67d9db	-0.056604248
108	0xbd51a97c	-0.051187024
109	0xba997df8	-0.0011710515
110	0x3b6caaba	0.0036112503
111	0xbda3d58f	-0.079997174
112	0x3c157a7c	0.009123441
113	0xbd449adc	-0.047999248
114	0x3c7c43e6	0.015397048
115	0xbbc4dd32	-0.006007814
116	0xbd9e7916	-0.07737939
117	0xbd81044a	-0.06299646
118	0xbd88fb99	-0.066886134
119	0xbd4a4c8b	-0.049389403
120	0xb9983783	-0.0002903306
121	0x3cc26642	0.023730401
122	0x3d322e0e	0.043500952
123	0xbd39d52b	-0.04536931
124	0xbd8a2b5c	-0.067465514
125	0x3ddb2229	0.10699875
126	0x3aa8e9b9	0.0012887038
127	0x3ce333a4	0.027734585
128	0xbb506633	-0.0031799197
129	0xbd4d3af6	-0.050105058
130	0xbe35b660	-0.17745352
131	0x39f452ba	0.00046600943
132	0xbc6f1779	-0.014592999
133	0xbd61153f	-0.054951902
134	0xbdf24a12	-0.11830534
135	0x3d87b5c8	0.06626469
136	0x3c1d2b90	0.009592906
137	0xbdb7ec25	-0.08980588
138	0xbda430a9	-0.08017094
139	0xbce55238	-0.027993307
140	0x3e258b0f	0.16166328
141	0x3bb88a40	0.005631715
142	0xbb9b4ea5	-0.0047396
143	0x3e0d4334	0.13795167
144	0xbda3c5fe	-0.079967484
145	0xbd8e62af	-0.06952416
146	0x3d32a197	0.043611135
147	0x3dd2e727	0.10297995
148	0xbe049af1	-0.1294973
149	0x3dd5ef1d	0.10445998
150	0x3d7100ab	0.058838528
151	0x3e2dea4c	0.16983908
152	0x3e238763	0.15969615
153	0x3dee0315	0.116216816
154	0x38c27cd3	9.273891e-05
155	0x3d99fd18	0.07518977
156	0x3d12c50c	0.03583245
157	0x3d1b77b5	0.03795596
158	0xbd0f7f30	-0.035033405
159	0xbdef8897	-0.11695974
160	0x3d841228	0.064487755
161	0xbe03ac27	-0.1285864
162	0xbd4bb300	-0.049731255
163	0x3e4a4b58	0.19755304
164	0xbe03c0df	-0.12866543
165	0x3d143e75	0.036192376
166	0xbbc77241	-0.006086618
167	0xbd4cb3ae	-0.049976043
168	0x3dbf966a	0.09354861
169	0x3e2569bd	0.16153617
170	0xbc6eff9b	-0.014587308
171	0x3e0a9d2e	0.13536522
172	0xbd7c3f0d	-0.061583567
173	0x3d5a6be9	0.053325567
174	0x3c14ee09	0.009089955
175	0x3e188b79	0.14896955
176	0x3d9e5547	0.07731109
177	0x3dd47159	0.10373182
178	0x3d85cee6	0.06533603
179	0x3d0f359d	0.03496324
180	0xbe610ccd	-0.2197754
181	0x3debb993	0.11510005
182	0xbc942e6f	-0.018088548
183	0x3e0da5a8	0.13832724
184	0x3c167280	0.009182572
185	0x3d1ead13	0.038739275
186	0x3dc1777c	0.09446618
187	0xbd3b2d34	-0.045697406
188	0xbd8e5c16	-0.06951158
189	0x3db53f32	0.08849944
190	0x3ddaa9ac	0.106768936
191	0xbd1165c1	-0.03549743
192	0x3dd33132	0.10312118
193	0x3e4b748a	0.19868675
194	0x3e94a7c7	0.29034254
195	0x3d2100b8	0.039307326
196	0xbd42b6c0	-0.047537565
197	0xbc43bfd5	-0.011947592
198	0xbd63adc1	-0.055585627
199	0xbdd20c3f	-0.10256242
200	0x3d770fd7	0.06031784
201	0x3b8db2af	0.0043242793
202	0x3cac1cd7	0.021009846
203	0xbe3ef9a4	-0.18649918
204	0xbe360beb	-0.17777984
205	0x3d86907c	0.06570527
206	0xbe2e215c	-0.17004913
207	0xbe9e7667	-0.3094971
208	0xbe8564b5	-0.26053396
209	0xbe2b6622	-0.1673818
210	0xbd408b23	-0.04700769
211	0xbe6f7ccd	-0.23387451
212	0x3cbd1f20	0.02308613
213	0xbded0e73	-0.115750216
214	0xbe030f2c	-0.12798756
215	0x3cd22bf6	0.025655728
216	0xbd17c309	-0.037051234
217	0xbd840b45	-0.06447462
218	0x3e01735a	0.1264166
219	0x3ce7f3e2	0.028314535
220	0xbd9cca9d	-0.07655833
221	0xbd24f4bc	-0.04027246
222	0xbd883e0e	-0.06652461
223	0xbde9341f	-0.113868944
224	0xbc8692b2	-0.016427372
225	0xbc87cf49	-0.016578333
226	0x3d8a62f7	0.06757157
227	0xbd90c1fa	-0.07068248
228	0x3d8be37b	0.06830498
229	0xbe08bcfa	-0.13353339
230	0xbd2e9aa6	-0.042627953
231	0x3d929bb9	0.07158608
232	0x3ddc1c51	0.107475884
233	0x3d93fb6a	0.07225688
234	0x3e19eda3	0.15032057
235	0x3d175cb5	0.036953647
236	0x3d9dc66e	0.07703863
237	0x3d1bc036	0.038025104
238	0x3e1e288c	0.15445155
239	0x3c334755	0.0109423
240	0x3c2e39b8	0.010633878
241	0x3e496997	0.19669186
242	0xbd9be404	-0.0761185
243	0x3e054386	0.1301404
244	0xbd0aec6e	-0.033916883
245	0x3d5648c3	0.052315485
246	0xbcf73a7b	-0.030179253
247	0xbcb770d2	-0.022392664
248	0x3cc94513	0.02456907
249	0xbde89df1	-0.1135825
250	0x3cd4d283	0.025979286
251	0xbad1d037	-0.0016007487
252	0x3dda31c4	0.10654023
253	0x3e90c8be	0.28278154
254	0x3d3d3e3d	0.046201933
255	0x3e08f0ae	0.13373062
