src/edgeDevice/models/model.tflite (tflite, 965428 bytes, 8 tensors)

sequential_1/lstm_1/Read_2/ReadVariableOp f4 [896]
000000 fd fd c5 3c 34 7c 5a 3b f2 16 7a 3d ed 78 2f 3c
       0.024168963 0.003333819 0.06105704 0.010709983
000010 74 68 7d 3d 30 57 f7 3d 5a 0a 8d 3d 52 42 1b ba
       0.061867192 0.120771766 0.0688674 -0.0005922663
000020 2b f6 d9 3c cf 8f a2 3b 39 e0 8c 3d 2f 63 eb 3b
       0.02660664 0.004960991 0.068787046 0.0071834545
000030 89 64 b4 3d c3 8a 9f 3d a3 4c 2f 3d 9b b7 b6 bc
       0.08808238 0.077901386 0.042797696 -0.022304347
000040 e5 1e bb 3c 09 fe 73 3b fd a2 3e 3b 64 78 6f 3c
       0.02284188 0.0037230274 0.0029088848 0.014616106
000050 b4 90 1c 3d 9a 88 dc 3c 95 bf fc 3c 3b df 1d 3d
       0.038223937 0.026920605 0.030853072 0.038542967
000060 15 a9 05 bc 8c 31 4d bb 88 1e 41 bc 1a f2 8f 3d
       -0.008157988 -0.003131005 -0.011787064 0.07028599
000070 c2 05 25 3b d2 e8 a3 3b 7d f8 46 3d 9c 8b e5 3c
       0.0025180434 0.0050021196 0.04857682 0.028020673
000080 fd b6 cc 3d 65 11 94 bc ea 29 91 3e 7f cf 35 3d
       0.0999584 -0.0180747 0.2835229 0.044387337
000090 90 66 86 bb d2 bb 72 ba 1a 5a c2 bb 82 4f 9c 3c
       -0.004101582 -0.0009259555 -0.005931151 0.019080881
0000a0 16 c2 b3 3c cb c7 93 3b b6 97 a5 3d 9f f7 34 3e
       0.021943133 0.004509901 0.08085577 0.17672585
0000b0 48 35 b7 3d ec e2 6e 3d 86 3a d7 3c 80 e7 9c 3d
       0.089457095 0.05832188 0.026273023 0.076613426
0000c0 bf b9 a7 bc e2 1c 6e bb 22 7c 33 3d d1 cc 7c bc
       -0.020474313 -0.0036333133 0.043819554 -0.015429691
0000d0 2b b9 39 3b c6 60 2c 3d 8a c0 a4 3d 4d a5 8d 3d
       0.0028339128 0.042084478 0.080445364 0.06916294
0000e0 ae 64 3c bc 91 20 57 3d 71 21 b3 3d 8b c8 90 3c
       -0.011498613 0.052521292 0.08746613 0.017673751
0000f0 a7 78 a1 3c 21 9a 9f 3c b1 07 34 3d 02 18 15 3c
       0.019710852 0.019482674 0.043952648 0.009099962
000100 05 5e 00 3b 24 a0 ca 3d 8b 92 58 bd 76 5f b8 3c
       0.001958729 0.09893826 -0.05287413 0.022506457
000110 11 06 08 3d c5 22 22 3e 19 eb 18 3e d4 14 0d 3d
       0.03320891 0.15833576 0.14933433 0.03444369
000120 07 e5 02 3d 43 39 b8 3d a5 a9 f6 b8 3c ab 02 bc
       0.0319567 0.08995297 -0.00011761793 -0.007975396
000130 d9 7b 38 3e 86 a0 80 3d 87 e8 0b 3e ff f7 38 3b
       0.18015994 0.062806174 0.13662921 0.002822399
000140 cb f8 43 3c 35 9d 12 3e 42 f8 4d 3d 7e 59 85 3c
       0.011961172 0.14317782 0.050285585 0.016278025
000150 3a 65 88 3d c5 7e 9a 3b 82 43 ea 3b 25 07 1f 3d
       0.066599324 0.004714819 0.007149161 0.038825173
000160 68 32 35 3e 7b fd 23 3e 0c eb 19 3e ef d8 13 3c
       0.1769501 0.16014664 0.1503107 0.009023889
000170 b6 6e c4 3c e3 e0 b3 3d 03 06 7a 3d 31 00 35 3d
       0.023978572 0.08783128 0.06104089 0.044189636
000180 3d 51 a9 3d a2 ad b1 bc ec 8b 13 bc f2 17 45 3d
       0.08267448 -0.02168924 -0.009005528 0.04811854
000190 12 97 b2 3c b2 58 f4 3b 89 06 03 3d 2d b3 3b 3c
       0.021800552 0.0074568624 0.031988654 0.011456293
0001a0 e3 1f 0b 3d d4 67 66 3d 3d 88 87 bb 08 02 8e ba
       0.033965956 0.056251362 -0.004136114 -0.0010834346
0001b0 ff ac bf 3d ea 2c 4e 3d ec a7 5c bb d5 4f 55 3e
       0.09359168 0.050335802 -0.0033669425 0.20831235
0001c0 e8 16 90 3d 36 39 d8 3b 25 d2 9a 3d 4f bc 56 3d
       0.07035619 0.006598617 0.07559613 0.05242568
0001d0 a2 5e 21 3d e9 23 2b bd b3 67 c7 3a ae 3b b0 3d
       0.03939689 -0.041782293 0.00152134 0.08605133
0001e0 0a 5f db bc 9d 8a 31 3d af 36 6c 3e 71 be 69 3d
       -0.026778717 0.043345083 0.23067735 0.057066385
0001f0 0f 11 3e 3d e3 c7 61 3e 1a f7 18 3d cb 7f 5d 3e
       0.046402987 0.22048907 0.03734503 0.2163078
000200 74 c7 9c 3c 0b 5f 3b 3d 38 90 09 3d 13 cb 64 bc
       0.019138075 0.045744937 0.033584803 -0.013964432
000210 fb 1b a0 3a 51 01 6e 3c 0e 95 a7 3c 04 d7 90 3c
       0.001221537 0.014526681 0.020456817 0.017680652
000220 d1 e7 db bb 12 56 02 3e d3 71 c7 bc af 3c 10 3d
       -0.0067109843 0.12728146 -0.024346268 0.035214122
000230 65 18 8a 3d a1 82 ea 3d b1 47 d8 3c 15 95 d6 3c
       0.06742934 0.11450697 0.026401373 0.026194135
000240 77 1d 12 3d 9d 56 81 3c 4c 5b c1 3d d7 c2 28 3e
       0.03567263 0.01578837 0.094412416 0.16480576
000250 8c f0 a7 3c db d3 ae 3c c7 80 b8 3c d8 97 15 3d
       0.020500444 0.021341255 0.022522343 0.036521763
000260 43 fb 24 3d bb 63 15 3d 33 86 f7 3d 79 68 13 3d
       0.040278684 0.036472064 0.12086143 0.035988305
000270 ec 72 3a 3d 69 37 1c 3c 47 44 15 3e 73 da a2 bc
       0.045519754 0.009534695 0.14576827 -0.019879555
000280 5e f6 f0 3c b3 33 61 3c 02 82 5b 3d 34 0e 7c 3d
       0.029414352 0.013745236 0.053590782 0.061536983
000290 61 2a c8 3c 67 bf 2b 3d 1a 96 3b 3d 38 d1 9c 3d
       0.02443427 0.041930582 0.045797445 0.07657093
0002a0 11 22 d9 bb ee 7e 79 3d e5 97 2b 3d 99 b3 a7 bb
       -0.0066263755 0.060912065 0.041892905 -0.0051178453
0002b0 43 b2 97 3d c0 36 7f 3d 4c e5 72 3b 47 98 73 3d
       0.074070476 0.062308073 0.003706294 0.059471395
0002c0 98 54 e5 3c 13 e5 b4 bc 7d af 69 bc 80 d6 8d bc
       0.027994439 -0.022081887 -0.014263031 -0.017314196
0002d0 84 92 db 3c aa 77 20 3e 5a 26 33 3d 58 da 3c 3c
       0.026803263 0.15670648 0.043737747 0.011526667
0002e0 e5 62 fc 3c 17 c9 4f 3d e0 da 2c 3d 91 e6 63 bb
       0.030808875 0.050728884 0.042200923 -0.003477488
0002f0 61 f6 08 3e 74 7a 0c bd 68 1e 2e 3d 2c 87 0e 3d
       0.13375236 -0.034296468 0.042509466 0.03479688
000300 fd cd d6 3c 71 01 c4 bc 9d 34 59 3d 6a 29 59 3d
       0.02622127 -0.023926469 0.05302869 0.05301801
000310 84 16 73 3c d6 72 2b 3c 2f 2d c8 3c fe f4 a6 3d
       0.014836911 0.010464391 0.024435608 0.08152197
000320 73 41 11 3d 87 fa d8 3c 6c 7f 22 3d c3 9f 30 3d
       0.035462808 0.026486648 0.0396723 0.04312111
000330 0d a8 ad 3c 28 49 76 3c eb 1c 8d bc 0c 2b 0c 3d
       0.021198297 0.01503209 -0.017225703 0.03422074
000340 64 6d ed 3d 6c 6f 75 3b 38 0b ba 3c 00 1b 63 3b
       0.1159313 0.0037450446 0.022710428 0.0034653544
000350 dd 67 89 bc 97 e9 84 3c 4f 07 c2 3d ce a6 da 3d
       -0.016773159 0.016224666 0.0947405 0.10676347
000360 df 87 6d 3d 89 82 33 3e 81 ff 8f 3e ef 8c df 3c
       0.057990905 0.17530264 0.28124622 0.027288882
000370 00 fd 16 3d 68 57 e0 bc ef 64 c4 3c e6 87 39 3d
       0.036862373 -0.027385429 0.02397391 0.04529562
000380 58 be 82 3f d6 d9 79 3f cb 63 82 3f f3 2b 71 3f
       1.0214338 0.97598016 1.0186704 0.94207686
000390 84 49 78 3f da 7b 84 3f 48 9d 80 3f a2 cc 79 3f
       0.96987176 1.0350296 1.0047998 0.9757787
0003a0 dc ef 72 3f d5 c5 80 3f 58 f3 74 3f ff a4 83 3f
       0.94897246 1.0060374 0.95683813 1.0284728
0003b0 e7 35 70 3f 8a 8b 72 3f ce 9a 75 3f de 35 73 3f
       0.9383225 0.9474417 0.9593934 0.9500407
0003c0 0b d2 79 3f 43 08 7b 3f 5f 83 70 3f d4 70 7c 3f
       0.97586125 0.9805948 0.93950456 0.9860966
0003d0 04 39 75 3f d0 71 71 3f 76 4b 80 3f 00 fa 80 3f
       0.95790124 0.9431429 1.0023029 1.0076294
0003e0 86 0d 77 3f 39 fb 7d 3f f1 d5 7d 3f 7f ae 77 3f
       0.9650501 0.9921146 0.99154574 0.96750635
0003f0 27 89 80 3f d6 c5 70 3f 5f d9 85 3f b1 bb 7f 3f
       1.0041856 0.94051874 1.0456961 0.9989577

sequential_1/dense_3/BiasAdd/ReadVariableOp f4 [42]
000000 93 d0 32 3d b0 8b 41 3d 75 ed ef 3d fd b1 d8 3c
       0.043655943 0.047252357 0.11715213 0.026452059
000010 0c 4b 26 bb e7 86 77 3c c9 91 99 3c ec da 35 3d
       -0.0025374321 0.015107847 0.018746274 0.044398233
000020 38 c7 59 3d 93 f6 13 3e 81 6e 23 3d 4f f9 82 bb
       0.053168505 0.1444953 0.039900307 -0.003997005
000030 72 25 09 3b db 68 e1 3c bb 2b 67 3d e1 9b 34 3d
       0.002092686 0.02751582 0.05643819 0.04409397
000040 64 f5 17 3e fc 97 f7 3c 6d a5 ba 3c 65 2c fd bb
       0.14839703 0.030223839 0.02278396 -0.0077262395
000050 f4 07 30 3d 78 06 2b 3d 78 a8 37 3d fb 19 0c 3e
       0.042976335 0.041754216 0.0448384 0.13681786
000060 94 2e 12 3d 97 93 ff 3b e5 6b fa 3b f2 48 43 3d
       0.03568895 0.0077995765 0.0076422566 0.047676988
000070 c4 b9 e4 3c 95 32 72 3d d9 dc 14 3e f0 84 12 3d
       0.027920611 0.05913027 0.14537372 0.03577131
000080 1e 35 72 ba df 5c 1c 3c 2a 92 2f 3d 3e b6 31 3d
       -0.00092394825 0.009543627 0.042864002 0.04338669
000090 6a d2 5b 3d 97 57 0f 3e a0 ac 24 3d 74 fb 58 3a
       0.053667463 0.13998257 0.04020369 0.00082772155
0000a0 79 c7 8b ba cc 83 2b 3d
       -0.0010664306 0.04187374

sequential_1/dense_2/BiasAdd/ReadVariableOp f4 [112]
000000 75 4f f8 bb d6 98 f0 3d 90 aa d4 3d 74 5a a2 3d
       -0.0075778314 0.11747901 0.10384095 0.07927409
000010 69 07 38 bc 21 7d a8 bd fb 2f 53 bd 58 a5 57 bd
       -0.0112322355 -0.082269914 -0.05155943 -0.05264792
000020 f9 71 a6 bd 0f e0 6c bc e3 88 8b bd 63 6e d0 bc
       -0.08127207 -0.014457717 -0.068132184 -0.025443261
000030 ec 8a 1a bd ea 6e 0c bd d5 9c 01 bd 0f 36 2b 3d
       -0.037730142 -0.034285463 -0.031643707 0.0417996
000040 93 b4 4d bd 0e 47 fd 3d b2 cd a2 3c 4e 76 f1 3d
       -0.050221037 0.12367068 0.019873474 0.11790143
000050 51 60 c0 3d 58 dc f5 bc a1 b1 11 3e 7b 95 f4 bc
       0.09393371 -0.030012295 0.14227916 -0.029856434
000060 0b 3d c9 3b 4b 64 cb 3a 61 0a 0c bd ac 4e ae bd
       0.00614131 0.001551756 -0.034189586 -0.08511099
000070 44 2d 17 bd a6 33 10 3e 92 b4 3b 3d a1 95 86 3d
       -0.036908403 0.14082202 0.045826502 0.06571508
000080 75 b8 3a 3d d9 3a 80 bd 6f eb 5d 3d e4 45 cb bb
       0.04558607 -0.06261224 0.054179605 -0.0062034
000090 ec 90 b0 3c f6 9e 3f bc e1 4f 46 3d f1 83 cf bc
       0.02155348 -0.011695614 0.048416022 -0.02533147
0000a0 29 79 02 3d 82 3e ce 3c 91 d6 00 bd 7e cd 89 3b
       0.03185383 0.02517629 -0.031454626 0.004205405
0000b0 d2 9d 02 3e 0a b9 1c 3e f5 93 7e 3d b7 b5 b3 bd
       0.12755516 0.15304962 0.06215282 -0.08774894
0000c0 dd 43 ed 3d 1d 23 a9 bc cb 52 70 bc e6 cb b0 bd
       0.115852095 -0.020646626 -0.014668177 -0.086326405
0000d0 b0 f7 5a bd 8a d4 2c bc 4c 10 d8 bc 2e 0c 04 3e
       -0.05345887 -0.01054872 -0.026374958 0.12895271
0000e0 cb 71 4c bb ac e7 67 3d 9a ce e8 3c 13 61 52 bd
       -0.0031195756 0.056617424 0.028418828 -0.05136211
0000f0 43 22 c4 3d 89 d7 1d 3d 25 28 74 3d 51 54 be 3d
       0.095768474 0.03853563 0.059608597 0.09293426
000100 42 b9 4e 3d 02 94 dc 3d 05 10 85 3d cb 52 7d bd
       0.050469644 0.10770418 0.06497196 -0.061846536
000110 13 a0 81 3c 7b 4d d0 3d c4 43 05 3d 23 10 28 bd
       0.0158234 0.10171028 0.03253533 -0.041031014
000120 52 1e b0 bc 5d 31 df 3d 1b 37 65 3d 5b d7 f4 bc
       -0.021498833 0.10898087 0.055960756 -0.029887846
000130 23 53 13 bd dd 35 5b bd 01 26 54 3d fa b7 f0 3d
       -0.035967957 -0.053518165 0.051794056 0.11753841
000140 cf 2b 89 bc 51 c3 92 bd 57 39 ad bc 5d 91 0d bd
       -0.016744522 -0.0716616 -0.021145506 -0.034562457
000150 35 a2 b8 bd 3e 1c a7 bd 93 40 de 3c f5 33 b9 3d
       -0.090153135 -0.08159684 0.0271304 0.09043113
000160 5b 36 4b 3d ed 8f b2 bc 9d 7e 7f bc 51 b2 7f bd
       0.049612384 -0.021797145 -0.015594152 -0.062425915
000170 8f ab ca 3d a3 6d 6a bd 6d 11 84 bd de 48 9e bc
       0.098960035 -0.057233464 -0.06448636 -0.019321855
000180 a9 48 69 3d 6a 41 f6 3d 4e 28 24 3e 2b a4 70 bd
       0.05695406 0.120241955 0.16031 -0.058750313
000190 ff 08 0f 3e 1e fc 98 3d 35 b3 ed 3c ff e7 6a 3d
       0.13968275 0.074699625 0.029016117 0.057350155
0001a0 73 c8 83 3d fc dd ae bc 96 ad 3c bd 96 77 85 bd
       0.06434717 -0.021346085 -0.046063982 -0.0651695
0001b0 98 c5 33 3d 3c 60 b7 bd f4 f0 41 3e 87 ff e3 bc
       0.043889612 -0.08953902 0.18939573 -0.027831806

sequential_1/dense_2/MatMul f4 [112, 224]
000000 b1 64 2d 3c 9d 6a 07 3e c0 1b 1e 3e ae 6b 4a ba
       0.010583089 0.13224263 0.15440273 -0.0007721734
000010 f3 7e 49 3d 65 a4 d3 3d 31 9b 0f be a7 23 19 3d
       0.049193334 0.1033409 -0.14024045 0.037387516
000020 07 33 e7 bd 0d eb 06 3e 83 09 eb bd 96 a0 8f bd
       -0.112890296 0.13175602 -0.114764236 -0.07013051
000030 83 83 8d 3b 08 a6 d8 bd 18 5f 21 be c0 70 72 bd
       0.004318656 -0.10578543 -0.15758932 -0.059189558
000040 c7 04 34 3e 06 79 16 3e 49 89 c9 3d 20 ae ce bd
       0.17579947 0.14694604 0.09840638 -0.100918055
000050 d6 29 06 3e 0b 68 1d 3e 7b 7b 06 3e fa fe 73 bd
       0.13101897 0.1537172 0.13133042 -0.059569336
000060 3f 9a c4 3d 5f 98 41 3e 9b f9 82 3d 8e 1d 3b be
       0.095997326 0.18905781 0.06395265 -0.18272993
000070 89 42 c9 bd 50 c8 1e 3d 05 ba 85 bd 35 ce 65 bc
       -0.09827144 0.03876525 -0.06529621 -0.014026214
000080 f3 e7 56 bd 3d d8 01 3e d3 b2 6b bc a9 52 8f bd
       -0.052467298 0.12680145 -0.014385897 -0.06998188
000090 6e 52 c8 3d 15 e3 9b bd bf f4 a3 3c f7 29 c0 3d
       0.09781347 -0.07611672 0.020014165 0.09383004
0000a0 3d ea 79 bd b0 61 23 3d 81 c1 22 3e 99 5e 23 3d
       -0.061014403 0.039888084 0.15894128 0.039885137
0000b0 2e 81 2e 3e 3d af 30 3e a4 8b 36 bd 3f ae 96 ba
       0.17041466 0.17254348 -0.044566765 -0.0011496021
0000c0 cd 2e 18 3e 41 4f ad 3d 96 04 db 3d d2 c2 fc bd
       0.14861603 0.08462382 0.10694234 -0.123418465
0000d0 81 b7 9d bd df 77 b2 bd 78 bc 10 3d 60 72 52 bd
       -0.07701016 -0.0871427 0.035335988 -0.051378608
0000e0 80 01 67 bc 45 1a 8a 3c eb 33 e8 3c 6b d8 81 bd
       -0.014099479 0.01685823 0.028345069 -0.063401066
0000f0 2b 4e f6 3c 4f e2 b5 bd 4b e0 12 be 85 19 d4 3d
       0.03006657 -0.088810556 -0.14343373 0.1035643
000100 a0 42 1f bd 5f 21 02 3c d9 04 83 bc f0 7f e3 bd
       -0.038881898 0.007942527 -0.015993522 -0.111083865
000110 04 d6 0d be 4c 61 95 3d 89 a7 7b bd ea c7 01 3e
       -0.13851172 0.072939485 -0.06143907 0.12673917
000120 c9 12 93 bd 26 7c 3a 3e 55 ce 26 3d cd f8 05 be
       -0.07181317 0.18211421 0.040724117 -0.13083191
000130 28 ad ce 3d 5a 13 ae bc 45 57 ef bd 7e 81 c8 bd
       0.10091621 -0.021249462 -0.11686567 -0.09790324
000140 3f 41 e9 bc 4a 81 34 be 86 38 58 3c 6d 8b 26 3d
       -0.028473495 -0.17627445 0.01319707 0.04066031
000150 fa 33 c7 3d f8 74 a8 bd bc 9f 81 bd 5c c6 a2 3d
       0.097267106 -0.08225435 -0.06329295 0.0794799
000160 83 8b e2 3d f2 6c 88 3b 7d f8 44 3d b8 fc 05 be
       0.11061766 0.004163378 0.04808854 -0.13084686
000170 40 d3 c6 3d d5 0f 9b bd af f2 12 3e 72 98 ea bc
       0.097082615 -0.07571379 0.14350389 -0.028637145
000180 02 a0 ff 3d 69 c1 7f 3c 92 99 37 3d b6 06 1e bd
       0.12481691 0.015610077 0.04482419 -0.03858062
000190 06 e8 1c bc 12 2c 40 3e 01 0d c9 3d 3b 0d 39 3e
       -0.009576803 0.18766811 0.098169334 0.18071453
0001a0 33 32 b3 bd 32 ef 16 3e 75 0b 0d be c8 ec 32 bd
       -0.08749809 0.14739683 -0.13773902 -0.043682843
0001b0 be b3 f5 3d 6a 36 86 3d ed ab 8f 3c 40 ee 8d 3c
       0.11997174 0.065533474 0.017538035 0.01732552
0001c0 c7 20 8e bd 7b 74 28 be 58 20 11 bd 48 ed cf 3d
       -0.069398455 -0.16450684 -0.035431236 0.1015268
0001d0 46 3e 98 3d 32 da 26 3d 1f 60 cd bd a1 4d 35 3e
       0.07433753 0.04073543 -0.10028099 0.17705394
0001e0 67 ce ca 3c ff 0c 1d 3e 65 e3 82 3d 9d 1b 93 3c
       0.024756623 0.15336989 0.06391028 0.017957503
0001f0 fb 4b 01 bd 55 1b 88 bd a0 12 9a bd 99 58 32 3d
       -0.0315666 -0.06645838 -0.07523084 0.043541525
000200 a0 e0 74 bd 02 39 be 3c cc 96 8a 3d 86 46 6f 3c
       -0.05978453 0.023220543 0.067670435 0.014604216
000210 91 09 be 3d b0 1c 9c 3c 30 01 62 3c c3 7e 78 bc
       0.092791684 0.019056648 0.013794228 -0.015166941
000220 11 0b 2b 3e 43 5c 07 3b b7 be 83 bd f0 3d fd bd
       0.1670344 0.0020654358 -0.0643286 -0.12365329
000230 c6 ce da 3d fd 1e 6e 3d 4d b5 f9 3d d4 01 e2 bb
       0.1068397 0.05813502 0.121927835 -0.0068971906
000240 02 a3 cb bc 2c ed 3d bd 66 9a 27 3e 56 eb 1d be
       -0.024858002 -0.046368763 0.16367492 -0.15421805
000250 4f 4b 1d 3e 66 83 d4 bd 2d 05 67 be c3 d4 e3 3d
       0.15360759 -0.10376625 -0.22560568 0.111245655
000260 ef 3e 84 bd a7 10 ca bd 07 e5 82 3d 55 d5 0f 3e
       -0.06457316 -0.098664574 0.0639134 0.14046223
000270 fb 19 93 3d b9 79 e1 bd 9b 44 6a bd bb f5 08 bd
       0.0718269 -0.11009545 -0.057194334 -0.03343747
000280 9b 5c 58 be ea da ee 3d fd 41 cf bd a8 67 4a be
       -0.21129076 0.11662848 -0.10120008 -0.19766104
000290 5b b4 21 bd 7d da 8e bd a7 36 28 3e ab 9d 1f bd
       -0.03947864 -0.06975267 0.16427098 -0.038968723
0002a0 18 45 ac bd 6a b0 e7 3d 73 26 d3 3d bf 47 22 bd
       -0.08411616 0.11312945 0.10310068 -0.039619204
0002b0 da 55 67 bd b6 ca 07 3d 17 21 02 3c 5a 0e 45 3e
       -0.05647836 0.033152305 0.00794246 0.19243756
0002c0 e7 e5 a0 bd 88 34 ec 3c 20 11 8d bc 40 5a fb 3d
       -0.078563504 0.028833643 -0.01722008 0.12273073
0002d0 68 e7 3d be 9b ac 0f 3e 22 ec 2b 3d ef 43 94 bd
       -0.18545306 0.14030688 0.04197324 -0.0723952
0002e0 84 89 d3 3c e1 96 da bd aa 75 e1 bc 5f f5 36 bd
       0.025822408 -0.10673309 -0.027521927 -0.044667598
0002f0 4a 67 f0 3d 5b 52 13 bd f5 42 3e 3e d4 20 37 3d
       0.11738451 -0.035967212 0.1858023 0.04470904
000300 c7 37 4a bd 14 88 6b 3d 60 2b ac 3a 8f 04 7d bd
       -0.0493696 0.05750282 0.0013135485 -0.061771926
000310 d8 87 84 bd d4 79 cd bd 34 f1 ca 3d a8 43 0f 3e
       -0.06471223 -0.100330025 0.09909287 0.13990653
000320 ee a0 a3 bd 01 07 0c 3e a9 4a 1b 3c 3e 19 de 3d
       -0.07989679 0.13674547 0.00947825 0.10844658
000330 2b df 83 bc 3a 17 a2 bd 02 3e 87 bd 83 56 07 bd
       -0.016097626 -0.07914586 -0.06603624 -0.03304149
000340 95 0f d6 3d 73 4e 38 3e 1c 61 55 bd 0d bc 97 3d
       0.10452191 0.17998676 -0.052094564 0.07408915
000350 64 49 28 3d 0c b0 ad 3d ca 1a 34 3c 1b 76 ba 3d
       0.041085616 0.08480844 0.010992715 0.09104558
000360 1e bf 24 be 86 a6 a9 3b 0d 81 77 3e b7 73 80 3d
       -0.1608853 0.005177322 0.24170323 0.06272071
000370 98 6c 2e 3e a7 4a ed 3c 99 45 77 bd 24 fa 9b bd
       0.17033613 0.028966261 -0.060369108 -0.0761607
000380 37 7a 53 bd 67 81 08 be 59 ef e3 3d a7 2d 05 bd
       -0.051630225 -0.13330613 0.11129636 -0.03251424
000390 5d c3 95 bd dc e7 d5 3c 9d e9 03 bb 5b b7 9c bc
       -0.07312653 0.026111536 -0.0020128258 -0.0191304
0003a0 66 09 c2 3d 49 fd 36 bd 0c b3 6b 3d bf 8c 67 bd
       0.09474449 -0.044675145 0.0575438 -0.05653071
0003b0 17 dc a4 bc 1e 17 59 bd 87 44 82 3d 3e 1d 11 3d
       -0.020124478 -0.053000562 0.06360727 0.03542828
0003c0 d2 cb ca 3c af f4 9b 3d 6a 49 94 3c 40 fd 05 bd
       0.024755392 0.07615029 0.018101413 -0.03271222
0003d0 90 b2 d3 bd d1 4f 99 bd b0 c0 e1 3b 08 1f 45 bc
       -0.103367925 -0.07485927 0.006889425 -0.012031324
0003e0 92 28 67 bd 78 20 b5 3d b4 b1 52 bc e0 e2 5a 3d
       -0.056435175 0.088440835 -0.012859751 0.05343902
0003f0 71 47 08 bd 6e 5c ab 3d 8c 1f 80 3b cb 00 0b 3d
       -0.033271257 0.08367239 0.0039100107 0.033936303

sequential_1/dense_3/MatMul f4 [42, 112]
000000 74 57 37 3c c9 11 18 3d 44 07 a4 3c b8 7b aa 3d
       0.011190284 0.037126336 0.020022996 0.08324379
000010 a8 b3 cf 3d 8c ae 19 3e be 0a aa 3b ac e5 e8 3c
       0.101416886 0.1500799 0.005189269 0.028429829
000020 9c 7c 00 3e 63 1c 0a 3e 5b 24 6e ba ab 30 02 3d
       0.12547535 0.13487391 -0.0009084397 0.031784695
000030 ba 2f a0 bd fa 12 29 be 0f 1a 62 be 01 85 64 3d
       -0.07821603 -0.16511145 -0.22080253 0.055790905
000040 2b 64 33 be e1 70 2e 3e 14 f1 69 3d 44 60 db bc
       -0.1751868 0.17035247 0.057114676 -0.026779301
000050 77 60 17 3e 23 23 ac 3d 96 8e 87 3d f0 83 a6 3d
       0.14782892 0.08405139 0.06618993 0.08130634
000060 b0 28 83 bd 86 37 bd bd db 5d ee 3c dd 7e a7 3d
       -0.06404245 -0.09239106 0.029097488 0.08178494
000070 5b 0c 58 3e 7c 7f 40 3d 5e 03 80 3d c7 16 48 bc
       0.21098463 0.04699658 0.06250642 -0.012212462
000080 24 e1 0b bd 89 3e fa bc 1f e3 f9 3d 06 79 26 3e
       -0.034150258 -0.030547397 0.12201523 0.16257104
000090 60 6c 81 bb 8e 78 d1 bd 94 cf ca bd 78 7a d9 3c
       -0.003949687 -0.10228072 -0.09902874 0.026547655
0000a0 4a 4f 84 bd 87 39 64 bc 5f e4 41 3d 74 29 c3 bb
       -0.06460436 -0.013929731 0.047336932 -0.0059558693
0000b0 45 ed bb bc 90 4c 2d 3b 9a d7 ed bd 97 21 1a be
       -0.022940287 0.002644334 -0.11613388 -0.15051876
0000c0 9d 06 b4 3c 7d 66 ce bd 54 eb 3a 3e d0 ed 1d 3e
       0.02197581 -0.10078142 0.18253833 0.1542275
0000d0 80 0a d5 3c 95 b7 94 bd 08 0d 99 3c 49 d0 6b bd
       0.026005983 -0.07261578 0.018682972 -0.057571683
0000e0 a7 d2 01 be ad 57 4b bb fd 4c f5 3d bc 8d 0b be
       -0.12678014 -0.00310276 0.11977575 -0.13628286
0000f0 66 d1 d7 3c b8 e8 93 bd fa 1a 2d 3d d1 33 1e 3e
       0.026344966 -0.07222122 0.042262055 0.15449454
000100 8b c2 85 3d 50 d8 b1 bd 42 71 5d 3e 1b 58 55 3d
       0.06531247 -0.086838365 0.21625236 0.052085977
000110 08 09 ab 3d 62 b2 f0 3d 37 05 b3 bd 90 8f 19 be
       0.08351332 0.11752774 -0.08741229 -0.14996171
000120 d7 0d 01 be 46 81 76 3d 5d 4f a3 bd 54 fb 79 3d
       -0.12602936 0.06018188 -0.07974122 0.0610307
000130 cd c2 c3 bd 90 92 f5 3a d7 38 9b 3d c4 3a 70 bd
       -0.0955864 0.0018735696 0.07579201 -0.058649793
000140 b0 5c 9f 3d db 92 a9 3d b8 39 68 bc 14 e4 6a 3d
       0.077813506 0.082799636 -0.0141739175 0.05734642
000150 60 78 2f 3d 7d 20 cd 3b 6b 5f 3c 3e 69 a2 ab bd
       0.042839408 0.0062599764 0.18395774 -0.08380587
000160 ee d3 2f 3e 8b c3 02 3e 4b 8c ff 3d fd df 25 3e
       0.17170689 0.12769906 0.12477931 0.16198726
000170 fa 3c e8 3d 8a 6d 6e 3d 63 a3 8c bd d5 2a ce bd
       0.11339755 0.058209933 -0.06867101 -0.10066763
000180 3b 93 b2 bc 91 2b 20 3e 09 39 05 be 8b 5b 0e 3d
       -0.02179872 0.1564162 -0.13010038 0.03475527
000190 7e 13 cc bd 19 07 54 3e 96 09 59 bc 71 44 ed 3d
       -0.09964655 0.20705833 -0.013246914 0.1158532
0001a0 42 bb 67 3d e5 58 e0 bd a8 ef ea bd 59 54 17 be
       0.056575067 -0.10954455 -0.11471492 -0.1477827
0001b0 3d 0c f4 bd 4a 78 35 3e 0e db c5 bd 73 47 2a 3e
       -0.11916397 0.17721668 -0.09660922 0.16628818
0001c0 47 a0 0e 3d 69 fc 78 3d 62 34 fe 3c a0 03 3a 3e
       0.03482082 0.060787592 0.031030837 0.18165445
0001d0 4b 3b 90 bd 55 0c 3b bd 36 6e 32 bd 58 4a 40 3d
       -0.07042559 -0.045666058 -0.043562137 0.0469459
0001e0 3b fd 7a 3b 54 b8 f6 3b c1 d4 8b 3d a2 86 ba bd
       0.003829791 0.007529298 0.06827689 -0.091077104
0001f0 90 29 93 bd ae f0 57 bd a4 ed 63 bc ca 26 89 bd
       -0.07185662 -0.052719764 -0.013911638 -0.066968516
000200 8f bd 20 bd dd 0a cd 3d c6 14 40 3e 60 b5 37 3d
       -0.039243277 0.10011838 0.18757924 0.044850707
000210 55 7c 80 bc 28 c2 a0 ba 47 6b 1c bd 21 38 0d bc
       -0.015684286 -0.0012264894 -0.038188245 -0.008619339
000220 37 27 92 bd 06 d9 8f bc c3 aa 90 3c 33 ca 01 bd
       -0.07136386 -0.01755954 0.01765955 -0.031686973
000230 7a a0 e7 bc ca 54 65 bd 66 f3 bc 3b 07 93 50 3c
       -0.028274763 -0.055989064 0.00576632 0.012730367
000240 a9 c8 7d 3d d6 2b f5 bc a7 07 ed 3c 19 95 f8 3d
       0.061958943 -0.02992813 0.028934313 0.12137813
000250 79 eb 48 3c 2e df 82 3e 4a ec 72 3d 34 82 fc 3d
       0.012263172 0.25560898 0.059307374 0.12329522
000260 c6 ab 33 3d 50 b3 6a 3d b2 fd dc bd 92 93 b2 bb
       0.043864988 0.057299912 -0.10790576 -0.0054497207
000270 2f de 42 3d 59 00 0e bd 49 61 90 3c a2 0f c7 bd
       0.047575172 -0.0346683 0.017624514 -0.097197786
000280 45 05 8e 3d f6 f4 7e bb a7 c9 1e be 4a 90 13 be
       0.06934599 -0.0038903332 -0.15506612 -0.1441051
000290 8a 87 ac 3d 6d 5a 89 3d 6d f6 93 39 02 bf ba bd
       0.084242895 0.067067005 0.00028221626 -0.09118463
0002a0 6f fe 05 be c8 8d 01 be c5 ee 6e bc e0 38 0c 3d
       -0.1308534 -0.12651742 -0.014583294 0.034233928
0002b0 81 df ab bc 54 b1 b5 bd 2d 08 8b bd 27 82 c1 3d
       -0.020980598 -0.08871713 -0.06788669 0.09448653
0002c0 49 31 5c 3b eb a2 af bc 40 a1 9c bc d2 92 48 3d
       0.0033598712 -0.02143999 -0.019119859 0.048968144
0002d0 ba 61 91 bd 49 a6 84 bd 84 ea e8 bc aa f2 ab 3b
       -0.07098718 -0.06477029 -0.028432138 0.0052474337
0002e0 50 fa 06 bd bd 4d 23 3e cb 11 a4 bd c2 5d ba bd
       -0.03295356 0.15947624 -0.08011206 -0.09099914
0002f0 d3 c4 62 bd a5 29 80 3d 06 c3 f1 3c 47 f8 24 3e
       -0.055363487 0.06257943 0.02951194 0.16110335
000300 a7 c8 37 bd 6d dc 4b 3b 34 7f 03 3e d7 41 44 3d
       -0.04486909 0.0031106726 0.12841493 0.047914352
000310 50 b9 b1 bc e0 ca 48 bd 5d f0 15 3d 40 15 1d 3e
       -0.02169481 -0.0490216 0.03660618 0.15340137
000320 91 a5 6e 3d ee 3a cc 3d 26 5e 9f 3d 3c 42 b4 3c
       0.058263365 0.099721774 0.07781629 0.02200424
000330 d4 59 46 3e d0 e3 c1 bb d9 f8 68 3d ef 4c d7 bd
       0.19370204 -0.00591705 0.056877945 -0.10512721
000340 b9 4a e5 3c 38 bc da bd 01 30 fd 3a 9d 21 c5 3d
       0.027989732 -0.10680431 0.0019316674 0.09625552
000350 5a 2d d4 bd c8 08 94 3c 2a de bc bd e7 62 e2 3c
       -0.103602126 0.018070593 -0.09222062 0.027635051
000360 7f 6c 72 bc 59 ee e7 bd 8a 99 2c be 82 09 9d 3c
       -0.014796375 -0.11324758 -0.16855446 0.019169573
000370 2e 46 6b 3b 6a 0f 8d 3d 61 0a e8 3d e8 da 0d 3e
       0.0035899985 0.068877056 0.113301046 0.13853037
000380 7d 19 14 3c a8 63 18 3e 44 f7 54 3d bb 7d 69 3d
       0.00903928 0.14881766 0.051993623 0.05700467
000390 63 2e ae bd 7c 36 45 3c d1 1a b2 3d 06 49 be bd
       -0.08504941 0.012036916 0.08696521 -0.09291272
0003a0 ba bb 94 bc d5 da 11 be dd 52 2f 3d 8d 1e 2b 3e
       -0.018155921 -0.14243634 0.042803634 0.16710873
0003b0 2e ef 62 be a4 09 68 3d 55 ea f6 3c c5 9a cc 3c
       -0.22161552 0.05664982 0.030141035 0.024976144
0003c0 3c fa 09 3d 0f e8 a3 3d 8c 28 98 bc f3 fd 3c 3e
       0.033685908 0.08003246 -0.018574022 0.18456249
0003d0 31 a9 b6 3a ea be f4 bd 20 77 46 3e 4e 1f 2a bd
       0.0013935921 -0.119504765 0.1938138 -0.04153376
0003e0 a4 f3 53 bd 89 98 3d 3c 20 ed 2f be 25 c3 41 bd
       -0.051746026 0.011572012 -0.171803 -0.047305245
0003f0 e9 88 8f 3c 8e 21 8d 3d b7 8d 09 be 68 2a 33 be
       0.017521339 0.06891166 -0.13432966 -0.17496645

sequential_1/lstm_1/Read_2/ReadVariableOp1 f4 [896]
000000 fd fd c5 3c 34 7c 5a 3b f2 16 7a 3d ed 78 2f 3c
       0.024168963 0.003333819 0.06105704 0.010709983
000010 74 68 7d 3d 30 57 f7 3d 5a 0a 8d 3d 52 42 1b ba
       0.061867192 0.120771766 0.0688674 -0.0005922663
000020 2b f6 d9 3c cf 8f a2 3b 39 e0 8c 3d 2f 63 eb 3b
       0.02660664 0.004960991 0.068787046 0.0071834545
000030 89 64 b4 3d c3 8a 9f 3d a3 4c 2f 3d 9b b7 b6 bc
       0.08808238 0.077901386 0.042797696 -0.022304347
000040 e5 1e bb 3c 09 fe 73 3b fd a2 3e 3b 64 78 6f 3c
       0.02284188 0.0037230274 0.0029088848 0.014616106
000050 b4 90 1c 3d 9a 88 dc 3c 95 bf fc 3c 3b df 1d 3d
       0.038223937 0.026920605 0.030853072 0.038542967
000060 15 a9 05 bc 8c 31 4d bb 88 1e 41 bc 1a f2 8f 3d
       -0.008157988 -0.003131005 -0.011787064 0.07028599
000070 c2 05 25 3b d2 e8 a3 3b 7d f8 46 3d 9c 8b e5 3c
       0.0025180434 0.0050021196 0.04857682 0.028020673
000080 fd b6 cc 3d 65 11 94 bc ea 29 91 3e 7f cf 35 3d
       0.0999584 -0.0180747 0.2835229 0.044387337
000090 90 66 86 bb d2 bb 72 ba 1a 5a c2 bb 82 4f 9c 3c
       -0.004101582 -0.0009259555 -0.005931151 0.019080881
0000a0 16 c2 b3 3c cb c7 93 3b b6 97 a5 3d 9f f7 34 3e
       0.021943133 0.004509901 0.08085577 0.17672585
0000b0 48 35 b7 3d ec e2 6e 3d 86 3a d7 3c 80 e7 9c 3d
       0.089457095 0.05832188 0.026273023 0.076613426
0000c0 bf b9 a7 bc e2 1c 6e bb 22 7c 33 3d d1 cc 7c bc
       -0.020474313 -0.0036333133 0.043819554 -0.015429691
0000d0 2b b9 39 3b c6 60 2c 3d 8a c0 a4 3d 4d a5 8d 3d
       0.0028339128 0.042084478 0.080445364 0.06916294
0000e0 ae 64 3c bc 91 20 57 3d 71 21 b3 3d 8b c8 90 3c
       -0.011498613 0.052521292 0.08746613 0.017673751
0000f0 a7 78 a1 3c 21 9a 9f 3c b1 07 34 3d 02 18 15 3c
       0.019710852 0.019482674 0.043952648 0.009099962
000100 05 5e 00 3b 24 a0 ca 3d 8b 92 58 bd 76 5f b8 3c
       0.001958729 0.09893826 -0.05287413 0.022506457
000110 11 06 08 3d c5 22 22 3e 19 eb 18 3e d4 14 0d 3d
       0.03320891 0.15833576 0.14933433 0.03444369
000120 07 e5 02 3d 43 39 b8 3d a5 a9 f6 b8 3c ab 02 bc
       0.0319567 0.08995297 -0.00011761793 -0.007975396
000130 d9 7b 38 3e 86 a0 80 3d 87 e8 0b 3e ff f7 38 3b
       0.18015994 0.062806174 0.13662921 0.002822399
000140 cb f8 43 3c 35 9d 12 3e 42 f8 4d 3d 7e 59 85 3c
       0.011961172 0.14317782 0.050285585 0.016278025
000150 3a 65 88 3d c5 7e 9a 3b 82 43 ea 3b 25 07 1f 3d
       0.066599324 0.004714819 0.007149161 0.038825173
000160 68 32 35 3e 7b fd 23 3e 0c eb 19 3e ef d8 13 3c
       0.1769501 0.16014664 0.1503107 0.009023889
000170 b6 6e c4 3c e3 e0 b3 3d 03 06 7a 3d 31 00 35 3d
       0.023978572 0.08783128 0.06104089 0.044189636
000180 3d 51 a9 3d a2 ad b1 bc ec 8b 13 bc f2 17 45 3d
       0.08267448 -0.02168924 -0.009005528 0.04811854
000190 12 97 b2 3c b2 58 f4 3b 89 06 03 3d 2d b3 3b 3c
       0.021800552 0.0074568624 0.031988654 0.011456293
0001a0 e3 1f 0b 3d d4 67 66 3d 3d 88 87 bb 08 02 8e ba
       0.033965956 0.056251362 -0.004136114 -0.0010834346
0001b0 ff ac bf 3d ea 2c 4e 3d ec a7 5c bb d5 4f 55 3e
       0.09359168 0.050335802 -0.0033669425 0.20831235
0001c0 e8 16 90 3d 36 39 d8 3b 25 d2 9a 3d 4f bc 56 3d
       0.07035619 0.006598617 0.07559613 0.05242568
0001d0 a2 5e 21 3d e9 23 2b bd b3 67 c7 3a ae 3b b0 3d
       0.03939689 -0.041782293 0.00152134 0.08605133
0001e0 0a 5f db bc 9d 8a 31 3d af 36 6c 3e 71 be 69 3d
       -0.026778717 0.043345083 0.23067735 0.057066385
0001f0 0f 11 3e 3d e3 c7 61 3e 1a f7 18 3d cb 7f 5d 3e
       0.046402987 0.22048907 0.03734503 0.2163078
000200 74 c7 9c 3c 0b 5f 3b 3d 38 90 09 3d 13 cb 64 bc
       0.019138075 0.045744937 0.033584803 -0.013964432
000210 fb 1b a0 3a 51 01 6e 3c 0e 95 a7 3c 04 d7 90 3c
       0.001221537 0.014526681 0.020456817 0.017680652
000220 d1 e7 db bb 12 56 02 3e d3 71 c7 bc af 3c 10 3d
       -0.0067109843 0.12728146 -0.024346268 0.035214122
000230 65 18 8a 3d a1 82 ea 3d b1 47 d8 3c 15 95 d6 3c
       0.06742934 0.11450697 0.026401373 0.026194135
000240 77 1d 12 3d 9d 56 81 3c 4c 5b c1 3d d7 c2 28 3e
       0.03567263 0.01578837 0.094412416 0.16480576
000250 8c f0 a7 3c db d3 ae 3c c7 80 b8 3c d8 97 15 3d
       0.020500444 0.021341255 0.022522343 0.036521763
000260 43 fb 24 3d bb 63 15 3d 33 86 f7 3d 79 68 13 3d
       0.040278684 0.036472064 0.12086143 0.035988305
000270 ec 72 3a 3d 69 37 1c 3c 47 44 15 3e 73 da a2 bc
       0.045519754 0.009534695 0.14576827 -0.019879555
000280 5e f6 f0 3c b3 33 61 3c 02 82 5b 3d 34 0e 7c 3d
       0.029414352 0.013745236 0.053590782 0.061536983
000290 61 2a c8 3c 67 bf 2b 3d 1a 96 3b 3d 38 d1 9c 3d
       0.02443427 0.041930582 0.045797445 0.07657093
0002a0 11 22 d9 bb ee 7e 79 3d e5 97 2b 3d 99 b3 a7 bb
       -0.0066263755 0.060912065 0.041892905 -0.0051178453
0002b0 43 b2 97 3d c0 36 7f 3d 4c e5 72 3b 47 98 73 3d
       0.074070476 0.062308073 0.003706294 0.059471395
0002c0 98 54 e5 3c 13 e5 b4 bc 7d af 69 bc 80 d6 8d bc
       0.027994439 -0.022081887 -0.014263031 -0.017314196
0002d0 84 92 db 3c aa 77 20 3e 5a 26 33 3d 58 da 3c 3c
       0.026803263 0.15670648 0.043737747 0.011526667
0002e0 e5 62 fc 3c 17 c9 4f 3d e0 da 2c 3d 91 e6 63 bb
       0.030808875 0.050728884 0.042200923 -0.003477488
0002f0 61 f6 08 3e 74 7a 0c bd 68 1e 2e 3d 2c 87 0e 3d
       0.13375236 -0.034296468 0.042509466 0.03479688
000300 fd cd d6 3c 71 01 c4 bc 9d 34 59 3d 6a 29 59 3d
       0.02622127 -0.023926469 0.05302869 0.05301801
000310 84 16 73 3c d6 72 2b 3c 2f 2d c8 3c fe f4 a6 3d
       0.014836911 0.010464391 0.024435608 0.08152197
000320 73 41 11 3d 87 fa d8 3c 6c 7f 22 3d c3 9f 30 3d
       0.035462808 0.026486648 0.0396723 0.04312111
000330 0d a8 ad 3c 28 49 76 3c eb 1c 8d bc 0c 2b 0c 3d
       0.021198297 0.01503209 -0.017225703 0.03422074
000340 64 6d ed 3d 6c 6f 75 3b 38 0b ba 3c 00 1b 63 3b
       0.1159313 0.0037450446 0.022710428 0.0034653544
000350 dd 67 89 bc 97 e9 84 3c 4f 07 c2 3d ce a6 da 3d
       -0.016773159 0.016224666 0.0947405 0.10676347
000360 df 87 6d 3d 89 82 33 3e 81 ff 8f 3e ef 8c df 3c
       0.057990905 0.17530264 0.28124622 0.027288882
000370 00 fd 16 3d 68 57 e0 bc ef 64 c4 3c e6 87 39 3d
       0.036862373 -0.027385429 0.02397391 0.04529562
000380 58 be 82 3f d6 d9 79 3f cb 63 82 3f f3 2b 71 3f
       1.0214338 0.97598016 1.0186704 0.94207686
000390 84 49 78 3f da 7b 84 3f 48 9d 80 3f a2 cc 79 3f
       0.96987176 1.0350296 1.0047998 0.9757787
0003a0 dc ef 72 3f d5 c5 80 3f 58 f3 74 3f ff a4 83 3f
       0.94897246 1.0060374 0.95683813 1.0284728
0003b0 e7 35 70 3f 8a 8b 72 3f ce 9a 75 3f de 35 73 3f
       0.9383225 0.9474417 0.9593934 0.9500407
0003c0 0b d2 79 3f 43 08 7b 3f 5f 83 70 3f d4 70 7c 3f
       0.97586125 0.9805948 0.93950456 0.9860966
0003d0 04 39 75 3f d0 71 71 3f 76 4b 80 3f 00 fa 80 3f
       0.95790124 0.9431429 1.0023029 1.0076294
0003e0 86 0d 77 3f 39 fb 7d 3f f1 d5 7d 3f 7f ae 77 3f
       0.9650501 0.9921146 0.99154574 0.96750635
0003f0 27 89 80 3f d6 c5 70 3f 5f d9 85 3f b1 bb 7f 3f
       1.0041856 0.94051874 1.0456961 0.9989577

while/MatMul_11 f4 [896, 224]
000000 cc 0e 21 3e 15 95 c6 bd 90 c5 2e bd ca cf 36 be
       0.15728301 -0.09696404 -0.04266888 -0.17852703
000010 7b 23 88 bd c2 7e 85 bc 48 25 18 3e bf 07 bf bd
       -0.06647392 -0.016295794 0.14857972 -0.09327649
000020 39 65 71 3d d0 37 cf 3c a8 ff aa 3c 29 ff 14 3d
       0.058934424 0.025295168 0.02087386 0.036376152
000030 9d 35 2c 3d f4 d6 f2 3d 9f aa 7a bd 55 79 56 3c
       0.042043317 0.11857405 -0.061197873 0.013090451
000040 15 b0 b9 3d 85 3b 18 3e c8 d2 9f 3c 1d 1e 28 3d
       0.09066788 0.14866455 0.019509688 0.041044343
000050 bf 4b 9c bd 22 0a 55 bd 49 21 b2 3d 6f cc 1c 3d
       -0.07631635 -0.052011617 0.08697755 0.0382809
000060 bc 7c 4f be 85 dc b1 bd 32 67 58 3d ce 6e 03 be
       -0.20262426 -0.08684639 0.05283279 -0.12835237
000070 49 9a 80 bc 11 5b 0f bd 4c fb bb 3c cc 3f fd 3d
       -0.015698569 -0.034998957 0.022946976 0.12365684
000080 71 77 0c 3d c8 59 9d bb b8 85 96 3d 7d 94 dd 3d
       0.034293596 -0.0048019625 0.073497236 0.108193375
000090 4f 3d 3f be 72 d3 5b 3d c0 0a 06 3e a8 6e 47 3d
       -0.18675731 0.053668447 0.13090038 0.048689514
0000a0 95 27 fd 3d 97 ad 8a bd e1 7e 22 bd 83 14 58 ba
       0.12361065 -0.06771391 -0.039671782 -0.00082428026
0000b0 75 3f cb 3d 99 66 ad 3c 22 c3 bc 3b 12 61 f5 bd
       0.09924213 0.021167086 0.0057605663 -0.11981405
0000c0 fc d4 08 3d c4 49 71 3d 3b 8e 91 3d ff 14 27 be
       0.033406243 0.05890824 0.071072064 -0.16316603
0000d0 57 b8 b6 bc 46 cc 3c 3d ec c3 90 3d ff 2e 2e 3e
       -0.022304697 0.046093248 0.07068619 0.17010115
0000e0 70 e8 1a 3e 86 56 36 bd 9b 4c 6f be ae 05 bf 3c
       0.1512773 -0.04451611 -0.23369066 0.023318138
0000f0 4c 10 87 bd 57 0f d4 bd a7 07 db bd 05 73 92 3d
       -0.06594905 -0.10354488 -0.10694819 0.071508445
000100 05 61 5b 3d 17 e4 7f bc 50 5e e6 bd 8b c8 80 3d
       0.053559322 -0.015618346 -0.112484574 0.062882505
000110 86 b8 54 bd 92 47 28 be e6 cf 1b be c2 fd 49 3d
       -0.051933788 -0.16433552 -0.15216026 0.049314268
000120 5b b0 87 3b e2 85 c4 bd 1a 11 cf 3d 15 0c 4b 3e
       0.0041408963 -0.095958486 0.10110684 0.19828828
000130 be a7 95 bd f5 ef 9f bd e8 86 fd 3c b0 7d 46 3d
       -0.07307385 -0.0780944 0.030948117 0.04845971
000140 b3 ed 0c be 9a 38 cb bc 83 dd 02 3d 92 5a 7f 3d
       -0.1376255 -0.024807263 0.03194953 0.062342234
000150 a1 f1 0e be 4e a4 88 3c b9 f4 44 bd 12 b2 cb 3d
       -0.13959362 0.01667991 -0.04808495 0.099460736
000160 da 16 00 3e 86 4d df bb 77 33 39 bd 29 99 62 bc
       0.12508717 -0.0068146614 -0.045215096 -0.013830462
000170 55 1b 0d 3e 52 e2 d4 bd e1 2b 51 3e 34 8d c0 bb
       0.13779958 -0.1039473 0.20426895 -0.0058762077
000180 7a 77 7c bd 64 4f ec 3c 6a 3e 93 bd ee c5 dc 3b
       -0.06163738 0.02884645 -0.07189639 0.0067374622
000190 b0 14 67 3e 73 9f 8e 3d 65 b3 71 3e 85 cd 10 3e
       0.22566485 0.06964006 0.2360359 0.141409
0001a0 15 71 19 bc 0e 56 da 3c 76 8e b8 bd 58 9d a7 3d
       -0.00936534 0.026652362 -0.09011547 0.08184308
0001b0 05 60 dd 3d 22 df 00 be 8d d4 13 3d ab 51 c9 bd
       0.1080933 -0.12585118 0.036091376 -0.0983003
0001c0 47 62 8f 3d fb 4d 36 bd 1a 55 be bd a1 f3 60 bd
       0.07001167 -0.04450796 -0.092935756 -0.054919843
0001d0 e5 79 90 3d 18 60 c7 bd bc f2 c0 bd a5 31 6c 3d
       0.070544995 -0.09735125 -0.09421298 0.057664532
0001e0 52 37 03 3e 4a 1f 5a bd b9 25 58 bc 57 99 84 bd
       0.12814072 -0.053252496 -0.0131925875 -0.0647456
0001f0 59 51 ac bd b6 44 0a be b8 c0 37 be 2c 60 00 3e
       -0.08413953 -0.13502774 -0.1794461 0.12536687
000200 93 a9 8e 3d 22 d9 3f be 8b 20 2a 3e 48 0a 1a 3e
       0.069659375 -0.18735173 0.16613977 0.15042984
000210 20 d7 00 3e 4a 1d 7d bd 9b 61 8a 3d 4f f3 c2 3d
       0.12582064 -0.06179551 0.06756898 0.09519064
000220 59 69 84 3d 3c f2 de bd 02 8b a3 3d b8 3d ef 3d
       0.06465406 -0.10886046 0.07985498 0.11681694
000230 4d bf 9c 3d 19 8e 89 bd c2 e3 32 3d 7b 41 02 3b
       0.07653675 -0.06716556 0.043674238 0.0019875455
000240 eb 33 2f 3e 46 8f 9d bc 75 de 16 3e 43 62 90 3d
       0.17109649 -0.019233357 0.14733298 0.07049992
000250 60 73 01 bd 0d 9f 8f be a5 87 d3 bd 41 c4 cc 3c
       -0.03160417 -0.28051034 -0.103286065 0.024995925
000260 ef 9c 3c bd a7 de 3d 3d f3 26 72 bd d9 be fb bc
       -0.0460481 0.046354916 -0.059119176 -0.030730652
000270 29 70 a4 bd 1b f5 da 3c 79 4b 99 3d b1 db 0b bc
       -0.08029205 0.026728204 0.074850984 -0.008536265
000280 f7 a1 95 3d be b3 64 3e 95 24 af 3d d4 89 45 bd
       0.07306283 0.22334191 0.08551899 -0.048227146
000290 f6 d3 1b bd bd 24 f5 bd db 1c ef 3d 27 9c 19 3e
       -0.03804394 -0.11969898 0.116754256 0.15000974
0002a0 3a 27 68 be 14 ae ae bd d4 27 2c be 47 42 ea bc
       -0.22671214 -0.085292965 -0.16812068 -0.028596057
0002b0 4f 8a 87 bd ab 96 55 3c 93 d1 04 3d 44 f6 0e bc
       -0.06618177 0.01303641 0.032426428 -0.0087257065
0002c0 cb 58 99 3d b9 8b a5 bd e0 47 35 be 51 a5 6e 3e
       0.07487639 -0.080832906 -0.177032 0.2330525
0002d0 e1 7e 14 be c6 9d 27 bd a6 a7 90 3c 1d 75 66 bd
       -0.14501525 -0.04092195 0.017658066 -0.05626403
0002e0 39 b1 36 bd 42 8c 98 3c 20 c6 f9 bd 1d f0 0a 3d
       -0.044602606 0.018621568 -0.121959925 0.033920396
0002f0 2e e5 67 bd dc 95 a2 3b dc 78 dd bc 86 c2 ac bd
       -0.056615047 0.0049617123 -0.02703517 -0.0843554
000300 7b fd d1 3d 4f 36 89 bc 46 d4 49 3c 5b b7 1f 3e
       0.10253426 -0.01674953 0.012318676 0.15597288
000310 c6 55 1d be a3 9a 48 3d 0d c0 a9 bd 75 58 63 3d
       -0.15364751 0.048975598 -0.08288584 0.05550428
000320 5f f2 89 bd fb 36 ef bd 83 a9 0a be 48 ac 79 3d
       -0.06735682 -0.116804086 -0.13541226 0.060955316
000330 d7 ff f6 bb 95 41 8b bd 5d 3f 73 bc e3 c9 60 bd
       -0.0075378227 -0.06799618 -0.01484665 -0.054880034
000340 dd a1 89 3c 45 e3 a2 3c 4f 59 89 3c 85 0a 87 3d
       0.016800815 0.019883761 0.016766218 0.06593803
000350 61 96 9b 3d e4 72 48 bc e8 ca a0 bd 40 a3 66 3e
       0.07597042 -0.012234423 -0.07851201 0.22523212
000360 4c dd 40 3d a8 27 41 bd 1a 9e 8c bd ac 06 c8 bd
       0.047086045 -0.04715696 -0.06866093 -0.097668976
000370 b0 9f 89 bd 7a 1d 82 bd ac 17 be bc f3 1a 8f 3c
       -0.06719911 -0.063532785 -0.023204647 0.017468905
000380 2b fa db 3d 5b a1 5f 39 58 87 f8 3c e4 31 97 3d
       0.10741075 0.00021327047 0.030337974 0.07382563
000390 ce 1c 4b 3d e3 b9 6c bd 5a 25 23 3e 14 99 9e 3b
       0.049588017 -0.057794463 0.15932217 0.0048400257
0003a0 fc 8c 27 bd bf 3d 07 be 9e 87 02 3d f3 77 b7 3d
       -0.040905938 -0.13207148 0.031867616 0.089584254
0003b0 ae a1 7c bd bd 7f 2d bd ce 6f fd 3c 00 48 60 bd
       -0.061677627 -0.04235815 0.030937102 -0.054756165
0003c0 41 e5 31 bd d7 22 85 3d 42 7a 13 3e 52 fb 9c 3d
       -0.043431524 0.06500786 0.14402106 0.07665123
0003d0 a1 b5 2e bd 19 c2 31 bc e8 90 58 bd cc 94 c3 3d
       -0.042653684 -0.010849499 -0.05287257 0.09549865
0003e0 d7 b4 33 bd 3c ba 1c be 4d 37 a0 bc db 56 f8 3d
       -0.043873634 -0.15305418 -0.01955762 0.12125941
0003f0 c0 9d ad 3b c3 3d 17 3c d0 e7 26 bb 47 39 a0 bc
       0.0052983463 0.009231034 -0.002546776 -0.019558562

while/MatMul f4 [896, 7]
000000 5f 86 b5 3c 7c 9f 3a be f5 cf 84 bc 07 08 82 bd
       0.0221588 -0.18224901 -0.016212443 -0.06349187
000010 58 9c b7 3d 67 80 89 3d d8 bc ed 3c b9 da fe 3d
       0.08965367 0.06713944 0.029020712 0.12444062
000020 02 a0 61 be b9 41 b6 bb 09 06 00 3e f4 1f 2c be
       -0.22033694 -0.005562034 0.12502302 -0.16809064
000030 1f 9f ad bd 8f 35 f8 3d b7 45 00 3e cf 5b 33 be
       -0.084776156 0.121195905 0.12526594 -0.17515491
000040 45 8d 12 bd a1 ea 55 3e 55 10 4f 3e 75 46 6a 3e
       -0.035779256 0.20890285 0.20221074 0.2287844
000050 f5 23 74 3d 06 b4 32 3c 5e d5 86 3d 5f fe cf 3c
       0.059604604 0.010907179 0.06583665 0.025389848
000060 1b 32 4b bd 87 af d3 bd db 8e 21 3b aa 28 1b bd
       -0.04960833 -0.103362136 0.00246518 -0.037880577
000070 95 f8 02 3c 5a f2 43 3d 08 c4 3c bc 37 58 b9 3d
       0.007993837 0.047838546 -0.011521347 0.09050029
000080 35 0c 73 3d 78 cf 8a bd 7b 41 0b 3d e1 a8 b2 bc
       0.059337813 -0.06777853 0.033997994 -0.021809043
000090 bc 59 99 bd 4d 85 a3 3d fe f1 25 bd a7 9d 08 3e
       -0.074878186 0.079844095 -0.040513985 0.1334139
0000a0 dd 7f c3 bd 17 a1 9d bc a8 6c 1f be a2 2b 4f 3e
       -0.09545872 -0.019241853 -0.15568793 0.20231488
0000b0 07 fb c6 3c 7e 52 e3 bd 52 4e 8b 3e f8 04 fa bb
       0.024289621 -0.110997185 0.2720819 -0.007629987
0000c0 0f f1 db bd 55 9e f2 3d c2 0f 97 bd 53 d2 6d bd
       -0.10739338 0.11846606 -0.073760524 -0.05806191
0000d0 6a 5a f5 3d 66 1a b7 bd ed 77 10 3e 57 4d fc 3c
       0.11980136 -0.08940582 0.14108248 0.030798597
0000e0 d6 8f 9c 3d 50 09 ac be c8 3c 48 3d 38 30 b2 3d
       0.07644622 -0.33600855 0.04888609 0.08700603
0000f0 0b 8a 0f 3d 78 2d 3d be 31 e5 18 be cf 77 d0 bd
       0.035043757 -0.18474376 -0.1493118 -0.10179102
000100 59 fd 24 be c1 82 a6 3d db d4 ac bb 79 8e 00 be
       -0.1611227 0.08130408 -0.005274398 -0.12554349
000110 c0 54 a7 3c a4 a1 cc bd 30 74 d4 3c 77 4d 84 be
       0.020426154 -0.09991768 0.025934309 -0.2584035
000120 68 73 22 3d fd a6 d5 3d ba 6a 5f be 1e 26 0f 3e
       0.03966084 0.10432241 -0.21818057 0.13979384
000130 cb 3d 1b bd cc 86 9a 3d 47 0f bf bd 5f bb 0b 3d
       -0.037900727 0.07545242 -0.09329086 0.034114238
000140 98 ae 82 3d 8e 0c af bc 8f 3f ab 3e df c9 64 bc
       0.06380957 -0.021368291 0.3344693 -0.013964145
000150 bc 54 02 3e e8 1e d3 bc 6f 8b 44 3d 4b 96 00 3e
       0.12727636 -0.025771573 0.047984537 0.12557332
000160 0b 18 51 be 92 f1 81 bc 0f 23 71 3d aa 5a 30 bc
       -0.20419328 -0.01586226 0.058871325 -0.0107638035
000170 f2 ec 02 bd 2d d7 6d 3d 14 85 ba 3c a3 3d 33 be
       -0.03196425 0.058066536 0.022768535 -0.17503981
000180 18 4e 53 be 74 44 fc bd f3 06 d7 bb 56 be ab 3d
       -0.20635259 -0.12317744 -0.0065621077 0.08385913
000190 8a 69 0d 3c 8a b0 05 3d 4b 01 9e bd a2 cf 68 be
       0.0086311195 0.032639064 -0.0771509 -0.22735456
0001a0 a4 2b 72 bb b4 87 a4 3d 83 56 cd bd 42 74 88 bd
       -0.0036952281 0.08033696 -0.100262664 -0.066627994
0001b0 a7 e7 02 3d ed 22 62 3c ff 1e 8d bd c4 39 23 bd
       0.031959202 0.013802272 -0.06890678 -0.03985001
0001c0 c3 bf 87 3a 35 ac 31 3e ac 8c 8d 3d 54 8d 0e 3a
       0.0010356832 0.17350848 0.06911597 0.00054379296
0001d0 da f3 0e 3e a1 6c bc 3c 76 91 84 3d bd 93 2d bd
       0.1396021 0.023001017 0.06473057 -0.042377222
0001e0 4b 6a 0f 3e 49 66 ae bb 6e 0e d3 3c 40 ef c2 3d
       0.14005391 -0.005322252 0.025763717 0.095182896
0001f0 7d 05 d5 bc c1 93 8b 3d 49 6f 2d 3b 09 9e 4f 3d
       -0.026003594 0.06815291 0.0026464036 0.050687823
000200 3f 79 50 bd 9f 08 03 3d 3f c5 23 3e a1 d6 68 3e
       -0.05089688 0.031990644 0.15993212 0.22738124
000210 a9 3a b9 bc a8 eb 34 bb a2 ac 8f bc da f5 8c bd
       -0.02261098 -0.0027606282 -0.017538372 -0.0688283
000220 ce 90 9f bc 52 d8 cc 38 f5 e8 0e be dc 60 3e ba
       -0.019478228 9.767771e-05 -0.13956054 -0.0007262358
000230 c8 97 d4 3b ca 40 1c 3e 8e a7 4c 3c 14 d1 90 3c
       0.0064878203 0.1525909 0.01249112 0.017677821
000240 31 52 e2 3d 8e 01 91 bc 74 a7 7a 3e 1a fa e5 bd
       0.11050833 -0.017700937 0.24477941 -0.11229344
000250 e1 52 56 be d7 d3 ff 3d be e3 03 ba 5b f1 a3 be
       -0.20930053 0.12491577 -0.00050311896 -0.32020077
000260 9b e6 90 be 7e 05 42 bd b4 91 8a 3e 9c bc 27 bd
       -0.28300938 -0.04736852 0.27064288 -0.040951356
000270 fe 4a 94 3d e9 35 8b 3e 5b e6 a6 3e 38 27 61 3b
       0.07240866 0.27189568 0.32597622 0.0034355652
000280 f8 c0 64 bd f9 46 17 be 38 0f 44 be 5d dc a1 3d
       -0.05584809 -0.14773168 -0.1914643 0.07903359
000290 c9 f5 e5 bd 6d c6 44 3b a4 4a 84 bd f9 35 2f 3d
       -0.112285204 0.0030025498 -0.06459549 0.04277608
0002a0 63 34 c5 3b ae 50 57 3d 97 4d a8 bd fc 79 7c bd
       0.006018208 0.052567177 -0.08217924 -0.06163977
0002b0 43 00 2b ba 0c 34 b0 39 ee 49 81 b6 fa d6 46 be
       -0.00065231713 0.00033608114 -3.853106e-06 -0.19417945
0002c0 39 88 b0 bd d7 54 bb 3c 23 01 78 be 5f 94 d6 bd
       -0.086197324 0.022867603 -0.24219184 -0.10477518
0002d0 23 8f 8e bd 27 1d a4 bd 68 e9 5a 3d 8e db d6 3d
       -0.06960895 -0.08013373 0.05344525 0.104910955
0002e0 b9 92 46 bd 2a 78 87 bd 99 f7 a4 3e 05 34 7c be
       -0.04847977 -0.06614716 0.32220152 -0.24629219
0002f0 82 b6 1e bd 63 ae 04 3e b8 22 cf 3d 24 97 f9 3d
       -0.03874827 0.12957148 0.10114044 0.12187031
000300 dd ab 15 3e c7 85 ab 3d 48 9b 3e 3d 43 e9 00 3e
       0.14616342 0.083751254 0.046534806 0.12588982
000310 d9 98 73 3e 88 ce 68 3d 9c 0b 31 3c 6e 30 5e 3e
       0.23788776 0.05683759 0.010805991 0.21698162
000320 69 b5 49 3e 3b 9c dd 3d 0d fd 5e 3e 78 65 54 bc
       0.19698109 0.10820814 0.21776219 -0.012963645
000330 6a 8f 0e be da a9 dc bd d5 fe 8c bd 6c cb 6a bd
       -0.13921896 -0.10774584 -0.06884543 -0.057322904
000340 c1 e0 ac be 7a ea 0a 3d 76 da bc bd 7c c1 d1 3c
       -0.33765224 0.03391502 -0.092213556 0.025604956
000350 f2 fb c9 3d 58 53 d7 bd c9 87 99 bd fa 97 87 3c
       0.09862508 -0.105139434 -0.07496602 0.01655196
000360 84 ad 5e bd 3f d3 e2 bd 46 da 9c be 1d bc 72 3d
       -0.054364696 -0.11075448 -0.3063528 0.05926143
000370 bd c0 9e bd b7 2e fe bd a9 c1 6e bd f1 c2 f5 bd
       -0.07751606 -0.12411254 -0.058290157 -0.12000073
000380 50 fd ea 3d 5d 88 e4 bc 33 7b b2 3d fd bf b2 bb
       0.11474097 -0.027897054 0.08714905 -0.0054550157
000390 3f 20 ce bc 14 06 cd 3d 88 a5 9f 3d f2 0b d6 3d
       -0.02516186 0.10010925 0.077952445 0.10451497
0003a0 14 e3 1b be 7f 8e ca bd 79 86 14 3e 28 48 49 be
       -0.15223342 -0.0989046 0.14504422 -0.19656432
0003b0 b4 81 a9 bd 10 22 f9 3b 6a 8d d5 bc 26 45 07 3e
       -0.08276692 0.0076029375 -0.026068408 0.13209972
0003c0 22 b6 83 3e 4b 51 1f bd df 44 38 bd af 23 52 bd
       0.25724894 -0.038895886 -0.044987556 -0.05130356
0003d0 e6 ce ba bd 20 d2 6a 3d c9 57 ca bd 46 1c ae bc
       -0.09121494 0.057329297 -0.09880025 -0.021253716
0003e0 08 e1 c6 3d f3 e8 d1 3d 12 29 d4 bc 6a 5b bc bd
       0.0971089 0.1024951 -0.02589849 -0.09197123
0003f0 ff 90 98 3b 6e 2f c7 3d 22 f0 a0 bd 73 5e dd 3d
       0.0046559568 0.09725843 -0.07858302 0.108090304
